Mujoco/ckpt/halfcheetah_ep140.pth (torch, 27607 bytes, 6 tensors)

net.0.weight f4 [64, 17]
0.035052672 -0.44979593 0.20840472 0.080733836 -0.6329923 0.62515795 0.2628652 0.18211357
-0.10261058 -0.6647798 -0.4767693 -0.019484205 0.09090858 -0.043880843 -0.0012735686 0.015232487
0.08481645 0.12507154 -0.38703802 0.17473209 -0.6974481 0.12220121 0.428817 -0.34578028
-0.3349206 0.18842012 0.35738713 -0.16365904 -0.165253 -0.07144781 -0.33311296 -0.10583844
0.17258365 0.29242396 -0.1670053 -0.079401195 0.25243682 -0.5314981 -0.7649225 -0.080282494
0.43236896 0.44874766 0.0025746631 0.5394782 -0.11960806 -0.04130516 -0.043587074 -0.0816103
0.20728417 0.2383467 0.14560786 -0.05082019 -0.13461633 0.01768133 0.40392637 -0.06122665
-0.049488038 0.4576251 0.5870141 0.23883599 -0.40826204 -0.11332824 0.08225058 0.29306445
-0.07642399 0.048533835 0.12880705 0.002884613 -0.5559971 -0.48606712 0.0056190914 0.584665
0.45210177 0.31219324 0.1567929 0.34906867 -0.09783092 -1.0261581 -0.05107707 0.08903179
-0.20699687 0.12609334 -0.120901614 0.073117256 0.18443725 0.44831046 0.5375542 -0.33252916
-0.47837758 0.6334385 0.16101822 0.28321466 0.4681601 0.053183947 -0.8811377 0.14732404
0.17924891 0.069240436 -0.036072414 -0.15606475 0.09707041 0.16091567 0.09249811 0.04527227
-0.63539857 0.4649083 -0.14813562 0.5025589 0.24844615 -0.19200528 0.03634307 0.83417284
0.21880357 0.16750242 0.5863251 0.10657943 -0.13618946 -0.15173626 0.08617644 0.48796374
0.36976713 -0.36337072 -0.4738673 -0.3289802 -0.52998203 -0.12376335 -0.18172882 0.014563046
0.05961753 0.096971884 0.083031766 -0.15007107 -0.13966936 0.08892185 -0.10830697 0.13994035
-0.41353658 -0.3105269 0.54861444 0.8805278 -0.73652095 0.20215626 0.362612 -0.052821223
-0.10053276 0.6883102 -0.23222195 0.068859726 0.012421926 -0.095317125 -0.06632404 -0.3265618
0.06324562 0.19856493 0.6530982 -0.1563185 -0.34508973 -0.4277941 1.0972692 -0.5286814
-0.0766398 -0.10228614 0.83182377 0.11746846 0.049868234 -0.16489413 -6.948058e-06 -0.041978937
0.20217967 -0.005612245 -0.112786375 -0.18416864 0.13682011 -0.371991 -0.033274774 0.34629384
0.464566 -0.31754503 0.07495896 0.6591707 -0.26854688 -0.012406069 -0.08768833 0.061551627
-0.044698622 0.16450684 0.2662465 -0.27995366 -0.3155512 -0.2186912 -0.18169254 0.19899844
-0.822829 -0.044333436 0.018541567 0.0367961 0.4100644 -0.048759952 -0.068562396 -0.37018254
0.0918082 0.023722328 0.2504141 -0.21637733 0.11186109 -0.25234625 0.019484125 0.3972879
-0.2722442 0.5950896 0.28933015 0.4509855 0.15660253 0.14099684 -0.034823947 -0.21831052
-0.22957139 0.08334918 -0.15698686 0.07143551 -0.35206267 -0.050996967 0.3693801 0.72615737
0.27660838 1.1294079 0.6627439 0.25086948 -0.28317824 -0.052828826 0.12784114 -0.43736044
-0.050362714 0.20574021 -0.0070529273 0.061570544 0.18836387 -0.14079547 -0.6378011 0.47670382
-0.65294725 0.12195641 0.4035622 0.29232582 -0.23455869 -0.04693895 0.0674364 0.52633685
0.09743761 0.063101254 -0.13069487 -0.14676617 -0.11516047 0.224966 -0.027857976 -0.09204699
00000000: 6493 0f3d a74b e6be 0c68 553e c857 a53d
00000010: c90b 22bf 5a0a 203f 4496 863e fb7b 3a3e
00000020: 7f25 d2bd 022f 2abf 1b1b f4be 579d 9fbc
00000030: 472e ba3d 66bc 33bd dfed a6ba ae91 793c
00000040: 3fb4 ad3d c112 003e d929 c6be f8ec 323e
00000050: f58b 32bf a144 fa3d e78d db3e 1d0a b1be
00000060: b67a abbe 34f1 403e 72fb b63e 3c96 27be
00000070: 1538 29be 3b53 92bd c88d aabe d3c1 d8bd
00000080: c5b9 303e 98b8 953e 7003 2bbe 189d a2bd
00000090: 663f 813e 4210 08bf f6d1 43bf 266b a4bd
000000a0: 775f dd3e 41c2 e53e aebb 283b 3e1b 0a3f
000000b0: 12f5 f4bd 992f 29bd 5c88 32bd 4d23 a7bd
000000c0: 4d42 543e 2811 743e 3a1a 153e d528 50bd
000000d0: ddd8 09be 70d8 903c 70cf ce3e ccc8 7abd
000000e0: f8b3 4abd d64d ea3e 8e46 163f 6c91 743e
000000f0: b907 d1be a318 e8bd fe72 a83d 8b0c 963e
00000100: 2e84 9cbd 6acb 463d ffe5 033e c60b 3d3b
00000110: d355 0ebf cadd f8be 5b20 b83b 9bac 153f
00000120: e279 e73e cbd7 9f3e 518e 203e 21b9 b23e
00000130: 945b c8bd 2659 83bf 3136 51bd 4d56 b63d
00000140: fdf6 53be 9d1e 013e 449b f7bd 80be 953d
00000150: 1edd 3c3e f388 e53e 279d 093f 4341 aabe
00000160: e8ed f4be 0729 223f f6e1 243e 8301 913e
00000170: aeb2 ef3e 69d7 593d 3e92 61bf 1ddc 163e
00000180: 078d 373e eecd 8d3d abc0 13bd 70cf 1fbe
00000190: dacc c63d 14c7 243e a66f bd3d 6a6f 393d
000001a0: 7ba9 22bf 7608 ee3e ddb0 17be b3a7 003f
000001b0: ab68 7e3e 089d 44be 79dc 143d 5a8c 553f
000001c0: 0b0e 603e c185 2b3e 6719 163f 5146 da3d
000001d0: 4075 0bbe c060 1bbe 467d b03d 62d6 f93e
000001e0: 1e52 bd3e ba0b babe bc9e f2be 1870 a8be
000001f0: e7ac 07bf a477 fdbd 1f17 3abe d899 6e3c
00000200: 8331 743d 3299 c63d 8f0c aa3d 3bac 19be
00000210: 7c05 0fbe a91c b63d 0bd0 ddbd 864c 0f3e
00000220: 11bb d3be 62fd 9ebe ff71 0c3f 456a 613f
00000230: a38c 3cbf 0d02 4f3e 48a8 b93e 115b 58bd
00000240: 1fe4 cdbd 1935 303f 97cb 6dbe 5406 8d3d
00000250: 5585 4b3c a035 c3bd e6d4 87bd 1c33 a7be
00000260: eb86 813d 9b54 4b3e 7231 273f f511 20be
00000270: 9aaf b0be d407 dbbe 5173 8c3f aa57 07bf
00000280: 54f5 9cbd 657b d1bd 67f2 543f 4e93 f03d
00000290: a242 4c3d 02da 28be 5d23 e9b6 1bf2 2bbd
000002a0: 3008 4f3e ece6 b7bb 8bfc e6bd b496 3cbe
000002b0: 921a 0c3e 9b75 bebe 214b 08bd 6d4d b13e
000002c0: 98db ed3e 4395 a2be 1584 993d 69bf 283f
000002d0: fa7e 89be d342 4bbc f095 b3bd 8f1d 7c3d
000002e0: e715 37bd 7b74 283e 7651 883e 1656 8fbe
000002f0: ed8f a1be 96f0 5fbe 9c0d 3abe 3fc6 4b3e
00000300: eca4 52bf fa96 35bd 7ce4 973c 82b7 163d
00000310: f6f3 d13e 84b8 47bd 716a 8cbd 9188 bdbe
00000320: f005 bc3d 5455 c23c 4736 803e 0592 5dbe
00000330: 6d17 e53d 8733 81be 2c9d 9f3c 5269 cb3e
00000340: 9763 8bbe cb57 183f 1523 943e 92e7 e63e
00000350: 6a5c 203e 7a61 103e 8ea3 0ebd cb8c 5fbe
00000360: c314 6bbe fab2 aa3d 2ac1 20be c84c 923d
00000370: 8f41 b4be 32e2 50bd 631f bd3e 73e5 393f
00000380: 9d9f 8d3e 7090 903f 96a9 293f f771 803e
00000390: bdfc 90be 0a63 58bd cae8 023e b5ed dfbe
000003a0: 2249 4ebd 90ad 523e 3e1c e7bb 6531 7c3d
000003b0: 75e2 403e b02c 10be ef46 23bf 8612 f43e
000003c0: 8d27 27bf 48c4 f93d b49f ce3e bbab 953e
000003d0: 2730 70be 0e43 40bd 181c 8a3d 03be 063f
000003e0: 5f8d c73d 3b3b 813d e0d4 05be df49 16be
000003f0: 41d9 ebbd 7d5d 663e 6936 e4bc 2283 bcbd

net.0.bias f4 [64]
0.29902667 0.16032827 0.146957 0.060256977 0.13811135 0.1761247 -0.17343986 -0.016279917
0.02054661 0.06240086 0.15948208 -0.0010002108 0.069966875 0.14433262 0.0071147666 0.1973387
-0.044895712 0.14357716 -0.23375992 -0.09454964 0.16094695 0.26714638 0.17315221 -0.13806374
0.1880861 0.023731949 0.03673107 0.039673485 0.13336027 -0.09615728 0.092183165 -0.14373375
0.14463857 -0.032994065 -0.1728069 -0.015379017 -0.16757971 -0.08053217 0.10197425 -0.19340976
0.12684248 -0.12529567 -0.1332022 0.058010153 0.06278379 0.1444618 0.07224563 -0.11902052
-0.059012167 -0.26145875 0.099612445 -0.09621411 -0.050030027 -0.110733 0.06369738 -0.2761729
-0.12058656 -0.0428209 -0.081099615 -0.0857743 0.037418738 0.11170302 0.075630024 -0.104832396
00000000: 061a 993e 182d 243e e57b 163e 05d0 763d
00000010: 106d 0d3e 095a 343e 389a 31be 765d 85bc
00000020: 5d51 a83c 0b98 7f3d 454f 233e 8119 83ba
00000030: cb4a 8f3d eecb 133e fd22 e93b 2813 4a3e
00000040: 91e4 37bd e405 133e c35e 6fbe 3ea3 c1bd
00000050: 47cf 243e 69c7 883e d04e 313e 9560 0dbe
00000060: a599 403e 8169 c23c 5273 163d aa80 223d
00000070: 988f 083e 1cee c4bd 87ca bc3d f12e 13be
00000080: 221c 143e c924 07bd 4bf4 30be 46f8 7bbc
00000090: 049a 2bbe 0dee a4bd e0d7 d03d 350d 46be
000000a0: ffe2 013e 824d 00be 2866 08be 0e9c 6d3d
000000b0: ca94 803d cbed 133e 84f5 933d 08c1 f3bd
000000c0: beb6 71bd ecdd 85be 9c01 cc3d e70b c5bd
000000d0: 49ec 4cbd fcc7 e2bd c673 823d 8966 8dbe
000000e0: 16f6 f6bd f864 2fbd 8e17 a6bd 70aa afbd
000000f0: 6444 193d 8ec4 e43d eae3 9a3d 5eb2 d6bd

net.2.weight f4 [64, 64]
0.021180164 -0.13470124 0.07212308 0.13307457 0.052128486 -0.15956363 0.23598818 0.17900907
0.05209543 0.020576889 -0.04250293 -0.2142504 -0.29146832 -0.535315 -0.19168171 0.20422742
-0.2075311 0.050249044 0.0005323161 -0.07305068 0.047932893 -0.071592584 0.07999347 -0.0021948942
-0.4149473 -0.066410005 -0.11863041 0.08093452 -0.25478134 0.06748053 0.5821488 -0.252293
-0.17972967 -0.019242719 0.102502145 -0.015391143 -0.061739802 0.15049691 -0.65897024 0.26774827
0.20644382 -0.07992085 -0.009059855 -0.22237904 0.18004252 -0.059926312 -0.069310136 0.048125308
0.23646794 -0.3822489 0.005960895 -0.007954792 -0.36793765 0.23916805 0.2818539 0.03421691
-0.01396966 0.20038636 -0.04504355 0.31807536 -0.014277415 0.03728633 -0.07405826 -0.23837596
-0.0388128 0.010834576 -0.00015254765 -0.26762262 -0.37022555 -0.36266166 0.09369773 0.13072166
0.2669018 -0.08038411 -0.1981528 -0.3519101 0.09083384 -0.059726562 -0.05764002 -0.16531631
-0.25871536 0.1492713 0.11605041 -0.030353215 -0.108382896 -0.20251139 0.15712841 -0.1752114
0.023006922 -0.045785513 -0.35863507 -0.055677854 -0.15699592 -0.072283365 0.15242532 0.43360904
-0.31547862 -0.037040554 -0.010993648 0.02537307 0.111446984 -0.27669838 -0.29469413 -0.089402
0.055089016 0.53974694 0.26298553 0.19046772 -0.09915047 0.13249162 -0.3552868 0.50898033
-0.083683625 0.07878895 -0.21749508 0.04127162 -0.012809844 0.24372232 0.159498 0.38353875
0.32623214 0.19705027 -0.2615177 -0.44363844 -0.19065507 -0.24854305 -0.32412544 -0.21767004
-0.14888245 -0.00505008 0.013360407 -0.11329716 0.045438867 -0.21861644 -0.38855404 0.18594857
0.12801449 -0.20764664 0.054125637 0.1732307 0.01869339 -0.1303341 -0.08810454 0.13897859
-0.17868693 -0.59385777 -0.0013194759 0.42539683 -0.17052817 0.06426793 0.07266874 -0.21757919
0.047211837 0.10019266 -0.08703941 0.20269832 0.21720819 -0.14170496 0.08289877 -0.4173572
-0.08306549 0.12345452 0.14649625 0.1834996 0.24172042 0.18931846 -0.004819011 0.38172582
-0.4209514 0.25558603 0.046385895 -0.1964331 -0.24420719 -0.120300174 0.15906346 0.08307904
0.014132218 -0.0330884 -0.30738428 -0.2863121 -0.10878013 -0.02061515 -0.33512482 0.19691902
0.068931885 -0.02185279 0.006969173 -0.023496661 0.102945656 -0.30765355 0.13875511 0.04032282
-0.3347999 -0.02635438 -0.046690494 -0.266344 0.2014897 -0.29907063 -0.1393193 -0.12072256
0.05422415 0.201611 0.09699341 0.3291945 0.19392471 -0.09115076 -0.08030501 0.10731168
-0.18294366 0.018515183 -0.19165991 -0.14162254 0.12268546 -0.2461849 -0.20706217 0.38074425
0.08575291 0.27343848 0.07220023 -0.2018491 0.24088481 0.09561975 0.14426774 -0.20264456
0.023374556 -0.11003932 0.014554456 -0.26802456 -0.22477464 0.11498533 0.13136593 -0.042227615
0.05237798 -0.110439815 0.093361445 -0.09788637 -0.30923754 -0.0060634096 0.10550747 -0.24971373
0.22046791 0.024776887 -0.32775626 -0.057863582 0.05962157 0.3993694 0.021747133 -0.05877356
-0.37458494 0.5064768 0.003721185 0.29345497 0.2019289 -0.097836345 -0.018374315 -0.13593239
00000000: 0682 ad3c 1fef 09be 44b5 933d b344 083e
00000010: ae84 553d a664 23be e3a6 713e 274e 373e
00000020: 0562 553d dd90 a83c 8d17 2ebd 7564 5bbe
00000030: 563b 95be 670a 09bf 3648 44be fe20 513e
00000040: 0883 54be f1d1 4d3d 218b 0b3a 989b 95bd
00000050: 4855 443d 229f 92bd 9ed3 a33d 37d8 0fbb
00000060: f973 d4be f801 88bd 80f4 f2bd ffc0 a53d
00000070: b372 82be 3b33 8a3d b407 153f 8c2c 81be
00000080: 0e0b 38be e8a2 9dbc a5ec d13d 222b 7cbc
00000090: e0e2 7cbd dd1b 1a3e 46b2 28bf 4d16 893e
000000a0: 0266 533e 8bad a3bd c96f 14bc 55b7 63be
000000b0: 115d 383e 4b75 75bd 79f2 8dbd 0b1f 453d
000000c0: a724 723e 21b6 c3be 9d53 c33b d154 02bc
000000d0: 5362 bcbe 78e8 743e 284f 903e 0827 0c3d
000000e0: 00e1 64bc 1532 4d3e 967f 38bd c6da a23e
000000f0: d2eb 69bc 8db9 183d dbab 97bd d418 74be
00000100: 2cfa 1ebd 8183 313c 33f5 1fb9 d505 89be
00000110: 348e bdbe caae b9be 98e4 bf3d e6db 053e
00000120: 5aa7 883e 6da0 a4bd 91e8 4abe 902d b4be
00000130: 1807 ba3d d7a3 74bd f117 6cbd ae48 29be
00000140: 5776 84be 93da 183e d6ab ed3d 4ea7 f8bc
00000150: daf7 ddbd 255f 4fbe 45e6 203e 9e6a 33be
00000160: 0379 bc3c 9789 3bbd 049f b7be 760e 64bd
00000170: 8ac3 20be 4d09 94bd 6215 1c3e 0102 de3e
00000180: 6a86 a1be d6b7 17bd b41e 34bc 2fdb cf3c
00000190: 513e e43d 69ab 8dbe 26e2 96be 6518 b7bd
000001a0: 05a5 613d db2c 0a3f 0aa6 863e f809 433e
000001b0: 670f cbbd e2ab 073e 27e8 b5be 894c 023f
000001c0: 5262 abbd 1a5c a13d 08b7 5ebe 6e0c 293d
000001d0: 61e0 51bc 5892 793e 7253 233e 315f c43e
000001e0: e607 a73e 8cc7 493e a6e5 85be 9424 e3be
000001f0: 153b 43be 1282 7ebe c5f3 a5be e5e4 5ebe
00000200: a474 18be 247b a5bb 9ce5 5a3c 5708 e8bd
00000210: 1b1e 3a3d fddc 5fbe 8ef0 c6be 4d69 3e3e
00000220: 3b16 033e 52a1 54be d8b2 5d3d 6363 313e
00000230: e122 993c 4d76 05be 2770 b4bd 6750 0e3e
00000240: b5f9 36be 1007 18bf 44f2 acba 9dcd d93e
00000250: f09e 2ebe e89e 833d 59d3 943d 14cd 5ebe
00000260: 3361 413d cf31 cd3d b841 b2bd 2690 4f3e
00000270: d36b 5e3e 1b1b 11be d5c6 a93d d8af d5be
00000280: 3d1e aabd b9d5 fc3d 1d03 163e 52e7 3b3e
00000290: 8f85 773e b3dc 413e cbe8 9dbb 9171 c33e
000002a0: f186 d7be 2cdc 823e 23ff 3d3d c225 49be
000002b0: 7311 7abe f05f f6bd 88e1 223e 5825 aa3d
000002c0: d28a 673c b487 07bd 7961 9dbe 8097 92be
000002d0: 1ec8 debd 1ae1 a8bc 7b95 abbe 24a5 493e
000002e0: 292c 8d3d 9f04 b3bc a95d e43b 127c c0bc
000002f0: 2cd5 d23d c484 9dbe d215 0e3e 8b29 253d
00000300: e46a abbe 24e5 d7bc 883e 3fbd 3e5e 88be
00000310: 5153 4e3e c91f 99be b8a9 0ebe 643d f7bd
00000320: 241a 5e3d 1d73 4e3e 7ba4 c63d 2e8c a83e
00000330: 3394 463e 40ad babd f476 a4bd 3ac6 db3d
00000340: 9555 3bbe 27ad 973c 7f42 44be 8005 11be
00000350: 8442 fb3d e517 7cbe 1b08 54be e9f0 c23e
00000360: 399f af3d 2100 8c3e b7dd 933d 88b1 4ebe
00000370: 82aa 763e 4ad4 c33d ecba 133e 0e82 4fbe
00000380: ff7b bf3c 4c5c e1bd d075 6e3c 843a 89be
00000390: 532b 66be 6e7d eb3d ca84 063e ddf6 2cbd
000003a0: 4b8a 563d 452e e2bd 4934 bf3d a678 c8bd
000003b0: 6254 9ebe 91af c6bb 4d14 d83d f5b4 7fbe
000003c0: 57c2 613e e6f8 ca3c abcf a7be 5d02 6dbd
000003d0: bf35 743d 257a cc3e 0b27 b23c 8bbc 70bd
000003e0: 99c9 bfbe 77a8 013f 20df 733b bb3f 963e
000003f0: 73c6 4e3e 6c5e c8bd bb85 96bc dc31 0bbe

net.2.bias f4 [64]
-0.066779755 -0.0155736115 -0.0052978364 0.005494042 -0.085768424 0.074807666 -0.021572772 0.042277798
0.15737438 -0.07117864 -0.062168986 -0.02389958 -0.09522543 0.038881145 0.072211735 0.21138842
-0.01758783 0.09325922 0.082428135 -0.099225305 -0.07383933 0.1785594 0.0855101 -0.014087746
0.09254275 0.003016057 0.19824062 0.019990476 0.027310997 0.011863538 0.13763577 -0.059488036
0.17054397 0.19348666 0.10285305 -0.1275551 -0.027517969 0.0038594073 -0.033274148 -0.045744073
0.18760088 -0.18645935 0.073331274 -0.096311666 0.010522814 0.02748448 0.09161673 -0.090679646
0.046339303 0.18911968 0.052376006 -0.045854174 -0.14788823 -0.032390907 0.017797628 -0.14443433
0.07660687 0.058173783 -0.08168074 0.024768023 -0.032630384 0.0068414607 0.0038687985 0.06234587
00000000: d3c3 88bd 7628 7fbc 7999 adbb 5d07 b43b
00000010: 5ba7 afbd c334 993d 62b9 b0bc 7c2b 2d3d
00000020: c026 213e 1bc6 91bd e8a4 7ebd 0dc9 c3bc
00000030: 8d05 c3bd d641 1f3d bfe3 933d 3576 583e
00000040: 5a14 90bc b1fe be3d 15d0 a83d a336 cbbd
00000050: 1339 97bd 46d8 363e eb1f af3d 4ad0 66bc
00000060: 0e87 bd3d 0aa9 453b 97ff 4a3e 11c3 a33c
00000070: 50bb df3c 495f 423c 64f0 0c3e baa9 73bd
00000080: 14a3 2e3e 5e21 463e 9fa4 d23d ce9d 02be
00000090: 5d6d e1bc 1cee 7c3b 794a 08bd 235e 3bbd
000000a0: 721a 403e 33ef 3ebe b52e 963d 0d3f c5bd
000000b0: e167 2c3c 2227 e13c 8da1 bb3d 40b6 b9bd
000000c0: 48ce 3d3d 97a8 413e 3988 563d 96d1 3bbd
000000d0: 0370 17be 54ac 04bd 55cc 913c 98e6 13be
000000e0: 10e4 9c3d a247 6e3d 3b48 a7bd 4fe6 ca3c
000000f0: 70a7 05bd 552e e03b ab8b 7d3b 625e 7f3d

net.4.weight f4 [17, 64]
-0.01550524 0.020363852 0.07924965 0.07724146 -0.039081927 0.04945084 -0.020694856 -0.0051335893
-0.03178161 0.06422155 0.066394016 -0.104422756 0.035739653 0.112292685 -0.118154205 0.05730774
-0.023057988 0.004418092 -0.060914293 0.06472323 -0.07442024 -0.036905218 -0.029101655 0.05302951
0.030383382 -0.17369035 -0.041093003 -0.18239284 0.037068136 -0.06696849 0.17711888 -0.09584313
-0.098271 -0.040572483 0.13829601 -0.0051342314 -0.13759662 0.013104861 -0.026811924 0.053977393
0.009136893 0.032798443 0.1670932 -0.011805567 -0.080492176 0.06811263 0.11238761 0.023552625
-0.050338507 -0.07226883 -0.023106433 -0.016508851 -0.060202714 0.02458783 0.034795105 0.105839096
-0.049300723 0.04798335 0.35494787 0.027551029 0.0036739742 -0.05497119 -0.100771405 -0.07565143
0.09123816 -0.07548313 0.17100531 -0.045694645 -0.21934293 -0.06775436 -0.26684254 0.18436581
-0.017626548 0.06976838 -0.035097737 -0.05004817 0.18108906 0.08934096 0.10823994 0.13362454
-0.10274616 0.09610721 -0.05510514 0.101990476 0.011517131 -0.12264282 0.12430477 -0.07371652
0.028588535 0.0669641 0.04150207 0.098404914 -0.19614442 -0.07355309 0.032602776 -0.07661064
-0.051032893 0.06569771 0.010818459 0.074140556 0.0037861848 -0.10118405 -0.018935207 0.0063738194
0.1534779 0.10801686 -0.051602464 0.019977847 0.018840734 0.049695674 -0.097263284 -0.14858106
-0.15924327 0.10708823 0.0068601132 -0.058517702 -0.020065652 -0.055738423 -0.13732392 -0.017659528
0.09647871 -0.06305841 -0.14451589 -0.0023022727 0.015652703 -0.019319942 0.17941536 0.16120078
0.098147206 -0.08783396 -0.14538877 0.017924318 0.038926303 0.08860238 0.23097084 -0.040158127
0.048376817 0.054387197 0.11849268 -0.303559 -0.13702326 -0.04569555 -0.069809325 -0.23688376
0.18718855 -0.1630581 -0.08175292 -0.013512149 0.10199423 -0.1637936 -0.20643425 -0.10605558
-0.10074495 -0.32499647 0.067505956 0.20553027 -0.034173705 0.12280218 0.008295414 -0.11125478
0.029492922 0.07394443 -0.16447915 -0.10723287 -0.014450148 -0.18842334 -0.13276729 -0.119922996
-0.18182367 -0.07872558 0.12583157 -0.027668346 0.09003179 0.21236016 -0.05360913 0.34305477
0.013799995 0.03194052 -0.012061277 -0.100741014 -0.11602459 0.08293439 0.08701953 0.033374313
0.12464834 -0.06164107 -0.19053948 0.017940214 0.039853226 -0.11525068 0.125619 -0.19666724
0.13961492 -0.068875305 -0.058949895 0.1961354 -0.020700827 -0.09866921 0.2241552 -0.10972594
0.011357427 0.038669467 0.07578234 0.11845664 -0.23690727 -0.2887703 -0.101735875 0.21677859
0.02799449 -0.18179978 0.0032685082 -0.18733914 -0.007853988 -0.10025248 0.087742604 -0.07576363
-0.0413011 -0.050513208 -0.014211161 0.18227394 0.35639793 -0.14270774 -0.033826172 0.1634163
-0.07429734 -0.18459895 0.049669653 -0.12844546 0.29843894 -0.17463478 0.017669363 -0.08382486
0.05954316 0.16746272 0.08093777 0.15231183 -0.082319625 -0.3252226 0.0045720404 0.030875547
-0.03282127 0.13088457 -0.08730102 0.09018402 -0.0091707865 -0.0173508 0.21929786 -0.119618095
0.01930822 0.109087974 -0.13295093 -0.19916472 -0.088975295 0.27135527 0.17474502 0.025158698
00000000: b109 7ebc 18d2 a63c a44d a23d c530 9e3d
00000010: 5f14 20bd f78c 4a3d 4288 a9bc ab37 a8bb
00000020: 6f2d 02bd 9786 833d 96f9 873d 99db d5bd
00000030: be63 123d b5f9 e53d d5fa f1bd 85bb 6a3d
00000040: 1be4 bcbc a4c5 903b 4481 79bd 9d8d 843d
00000050: a469 98bd ed29 17bd 9866 eebc 7935 593d
00000060: 92e6 f83c e2db 31be 2351 28bd 30c5 3abe
00000070: c2d4 173d c726 89bd a75e 353e 6749 c4bd
00000080: 4e42 c9bd 552f 26bd 789d 0d3e 0e3d a8bb
00000090: 21e6 0cbe c5b5 563c aea4 dbbc 6617 5d3d
000000a0: e8b2 153c a957 063d 7b1a 2b3e 236c 41bc
000000b0: 15d9 a4bd a27e 8b3d 7a2b e63d 6ff1 c03c
000000c0: c02f 4ebd ae01 94bd b449 bdbc 923d 87bc
000000d0: 1f97 76bd 6b6c c93c 5085 0e3d 2bc2 d83d
000000e0: 8eef 49bd 308a 443d babb b53e b2b2 e13c
000000f0: 0fc7 703b 7829 61bd 3d61 cebd 23ef 9abd
00000100: 13db ba3d e696 9abd 041c 2f3e 4f2a 3bbd
00000110: 6f9b 60be ccc2 8abd 969f 88be 64ca 3c3e
00000120: 8d65 90bc b9e2 8e3d a5c2 0fbd 4fff 4cbd
00000130: 696f 393e 65f8 b63d e7ac dd3d dfd4 083e
00000140: 946c d2bd dbd3 c43d edb5 61bd 62e0 d03d
00000150: 59b2 3c3c 292c fbbd 8093 fe3d b0f8 96bd
00000160: 8132 ea3c 7924 893d 13fe 293d 8488 c93d
00000170: 15da 48be 01a3 96bd 7d8a 053d 0ae6 9cbd
00000180: de07 51bd 858c 863d e83f 313c 01d7 973d
00000190: a421 783b 9539 cfbd 021e 9bbc 79db d03b
000001a0: 5029 1d3e f237 dd3d 1b5d 53bd 95a8 a33c
000001b0: e257 9a3c b18d 4b3d f931 c7bd a225 18be
000001c0: ab10 23be 1351 db3d cdca e03b 42b0 6fbd
000001d0: b960 a4bc f94d 64bd a49e 0cbe b7aa 90bc
000001e0: a196 c53d c524 81bd f9fb 13be bae1 16bb
000001f0: 193a 803c db44 9ebc a9b8 373e d111 253e
00000200: 6701 c93d 4be2 b3bd cbe0 14be 05d6 923c
00000210: 3071 1f3d 2a75 b53d 9f83 6c3e d97c 24bd
00000220: c526 463d 1cc5 5e3d 4aac f23d 166c 9bbe
00000230: d34f 0cbe 422b 3bbd 31f8 8ebd a891 72be
00000240: 5bae 3f3e b4f8 26be 136e a7bd 1062 5dbc
00000250: 5ae2 d03d 82b9 27be 8063 53be ab33 d9bd
00000260: 5e53 cebd f065 a6be 9040 8a3d 8776 523e
00000270: baf9 0bbd b67f fb3d 7de9 073c 8cd9 e3bd
00000280: 249b f13c 2d70 973d 396d 28be e89c dbbd
00000290: 50c0 6cbc 0cf2 40be 26f4 07be 309a f5bd
000002a0: fc2f 3abe e03a a1bd fed9 003e baa8 e2bc
000002b0: 9662 b83d f174 593e 3f95 5bbd e0a4 af3e
000002c0: 6019 623c 10d4 023d aa9c 45bc 4e51 cebd
000002d0: 4d9e edbd 81d9 a93d 4c37 b23d 81b3 083d
000002e0: a147 ff3d 597b 7cbd c81c 43be 5bf7 923c
000002f0: 233d 233d 8c08 ecbd 44a2 003e 2363 49be
00000300: 37f7 0e3e 7f0e 8dbd 7275 71bd b8d7 483e
00000310: c894 a9bc 1513 cabd f188 653e feb7 e0bd
00000320: 8014 3a3c e063 1e3d c533 9b3d 6599 f23d
00000330: d297 72be b3d9 93be e65a d0bd 35fb 5d3e
00000340: b354 e53c b929 3abe 7834 563b d5d5 3fbe
00000350: 03ae 00bc 2c51 cdbd 65b2 b33d f629 9bbd
00000360: 582b 29bd f0e6 4ebd eed5 68bc 05a6 3a3e
00000370: ca79 b63e fa21 12be 508d 0abd 9a56 273e
00000380: 3429 98bd 8207 3dbe 6872 4b3d 3587 03be
00000390: fdcc 983e 76d3 32be 57bf 903c 5eac abbd
000003a0: 87e3 733d 597b 2b3e b4c2 a53d a2f7 1b3e
000003b0: 3197 a8bd 9483 a6be 0ed1 953b b7ee fc3c
000003c0: 996f 06bd 9b06 063e e1ca b2bd 66b2 b83d
000003d0: 1141 16bc 4423 8ebc 9e8f 603e 55fa f4bd
000003e0: 462c 9e3c 8469 df3d 4a24 08be d6f1 4bbe
000003f0: ae38 b6bd 14ef 8a3e 5cf0 323e 9d19 ce3c

net.4.bias f4 [17]
0.001004965 0.011030824 -0.01032835 -0.039702184 0.00094814337 0.014504001 0.028651126 0.052051775
-0.2272477 -0.04203923 0.30948237 -0.25461745 0.12807608 -0.52379024 -0.37667844 -0.53069556
-0.53884315
00000000: 08b9 833a a1ba 343c 3d38 29bc c29e 22bd
00000010: d38c 783a 30a2 6d3c c4b5 ea3c 3e34 553d
00000020: 9fb3 68be 5431 2cbd 7974 9e3e 385d 82be
00000030: 6026 033e 1e17 06bf ffdb c0be aadb 07bf
00000040: a0f1 09bf
