Mujoco/ckpt/walker2d_ep070.pth (torch, 27983 bytes, 6 tensors)

net.0.weight f4 [64, 17]
-0.032323353 0.24441944 0.16575909 0.49048582 0.360381 0.33761713 -0.24665074 -0.17123435
-0.02269857 0.2931584 -0.079640925 -0.05601787 0.017582817 0.10559332 0.013702943 -0.051133208
0.05330568 -0.57766753 0.6870582 -0.12024398 -1.8425899 -0.079208836 -0.16149256 0.5435801
0.63001865 0.040426712 0.4196135 0.39708206 -0.1972809 0.11694658 0.13951662 -0.12822457
-0.045664895 -0.029724697 0.35590962 0.31770205 0.43365636 -0.80265635 0.0019790498 0.494754
0.12152435 -0.13819598 -0.043401882 -0.1840906 -0.46352485 0.07543294 -1.01653 0.13139291
0.15566014 -0.14684401 -0.060986243 -0.5069509 -0.6863634 -0.49583107 -0.5773619 0.06924699
-1.7068303 0.53399014 0.5717395 0.11697478 0.3497043 -0.186173 0.03204453 -0.11849163
-0.09926914 0.268905 0.21311603 0.0020080423 0.21507338 0.5056689 -0.1153335 -0.48248655
-0.21199015 -0.75052255 0.009534684 0.34112412 0.054130036 0.3202376 -0.30873156 -0.2701709
0.44990748 0.31147304 -0.030470792 -0.1340255 0.25354424 -0.46193203 0.7231898 0.24491258
-0.93959564 -0.53111535 0.06035751 -0.6523162 -0.70727974 0.2525404 -0.09765606 0.24521674
-0.042848326 -0.5217373 0.0807323 0.10458205 -0.40926552 -0.20772287 -0.37543315 0.5214883
-0.19074263 -0.25379562 -0.39292556 -0.7413544 -0.7860419 -0.57571346 0.17615621 0.81293684
0.41209146 -0.22317773 -0.26970726 0.14186919 -0.13667485 -0.3949266 -0.05787209 -0.18649586
-0.15497668 -0.1321544 2.7604742 -0.85411805 0.044034716 -0.26773572 -0.11788372 -0.11033296
-0.03058821 -0.09922534 0.05279967 -0.2443209 -0.24536893 0.13734528 0.0886054 0.08663229
0.18475811 -0.23584858 0.09658854 0.7998647 0.2606459 1.3031912 0.057482935 -0.006528422
0.20684232 0.26035646 0.27649057 0.05039869 -0.5078317 0.011327206 -0.28322667 0.5054631
0.02586469 0.44636047 -0.07322037 -0.27294576 0.69003 -0.08005328 0.020452986 -0.23336391
-0.16292807 0.04775864 0.7207548 -0.121342026 0.06538358 -0.11118957 -0.1681481 -0.12957616
0.05584419 -0.13955316 0.233748 0.8047486 0.21152456 -1.3200856 -0.5695611 0.6046333
-0.55540466 0.5967117 -0.27258265 0.21232638 0.5453567 -0.114964075 -0.10207908 -0.0765314
-0.19590703 0.059010994 -0.01755978 0.5710161 -0.6110916 0.3534634 -1.5273963 -0.6011684
0.4273001 -0.3039121 -0.18495525 -0.20845969 -0.21272403 -0.063736774 0.11157866 0.1537825
-0.028377865 -0.026489478 -0.039826438 -0.11187199 -0.5008685 -1.0255756 -0.1509077 1.4011714
0.07088516 -0.25385833 -0.06882107 0.1695531 -0.34802717 -0.07974491 0.2693852 -0.27868798
0.031871982 -0.23182023 -0.23331062 -0.27865323 0.06840358 0.69926685 -0.72409666 0.118502274
0.41754714 1.0052212 0.5578374 -0.40038002 1.3824522 0.17832436 -0.19984071 0.32007754
-0.12607406 0.8694371 0.030459283 0.049670734 0.0659828 -0.15096603 0.54698026 -0.033446237
-0.006948656 -0.7902927 -0.04338125 -0.88735455 -1.3831857 -0.5353154 -0.0033848842 0.2919549
-0.31794065 -0.08788447 -0.20251533 0.0029633343 -0.18195437 -0.26570237 0.11029231 -0.060939454
00000000: 7e65 04bd 1749 7a3e c0bc 293e f520 fb3e
00000010: dc83 b83e 27dc ac3e 0392 7cbe 0f58 2fbe
00000020: 5af2 b9bc dc18 963e c81a a3bd fe72 65bd
00000030: d709 903c 5041 d83d 4f82 603c 0e71 51bd
00000040: 0f57 5a3d 05e2 13bf 0ce3 2f3f 7a42 f6bd
00000050: fcd9 ebbf 3e38 a2bd 4e5e 25be 1128 0b3f
00000060: e748 213f 7b96 253d 95d7 d63e 574e cb3e
00000070: 0104 4abe b081 ef3d 72dd 0e3e 4d4d 03be
00000080: 1d0b 3bbd 3581 f3bc c939 b63e d8a9 a23e
00000090: 3508 de3e e37a 4dbf f2b2 013b 6550 fd3e
000000a0: c2e1 f83d 3f83 0dbe 2cc6 31bd 3f82 3cbe
000000b0: 2153 edbe 967c 9a3d a81d 82bf dd8b 063e
000000c0: 5f65 1f3e 475e 16be b6cc 79bd 89c7 01bf
000000d0: 83b5 2fbf 92dd fdbe fdcd 13bf 5ed1 8d3d
000000e0: 6a79 dabf 94b3 083f 855d 123f 7990 ef3d
000000f0: 710c b33e 23a4 3ebe 2041 033d bdab f2bd
00000100: 9e4d cbbd ebad 893e 173b 5a3e 5c99 033b
00000110: 323c 5c3e 8473 013f f833 ecbd 7a08 f7be
00000120: f213 59be 3f22 40bf 5d37 1c3c d2a7 ae3e
00000130: 75b7 5d3d 2ff6 a33e 1012 9ebe d753 8abe
00000140: 465a e63e 6579 9f3e e29d f9bc fb3d 09be
00000150: 8dd0 813e 5b82 ecbe f722 393f 5dca 7a3e
00000160: 5789 70bf 2df7 07bf 7039 773d 32fe 26bf
00000170: 4910 35bf fa4c 813e e6ff c7bd 191a 7b3e
00000180: ba81 2fbd 9390 05bf fa56 a53d 1d2f d63d
00000190: 408b d1be 4eb5 54be c638 c0be 4280 053f
000001a0: 0952 43be 80f1 81be 8a2d c9be 67c9 3dbf
000001b0: 0b3a 49bf f561 13bf 4b62 343e a11c 503f
000001c0: a7fd d23e b488 64be 1217 8abe 2846 113e
000001d0: 7ef4 0bbe d233 cabe 490b 6dbd c5f8 3ebe
000001e0: 35b2 1ebe 7c53 07be 9cab 3040 7ba7 5abf
000001f0: bf5d 343d a814 89be 056d f1bd 3ff6 e1bd
00000200: 2094 fabc a836 cbbd 7744 583d 422f 7abe
00000210: fe41 7bbe 3ea4 0c3e bf76 b53d 456c b13d
00000220: 3b31 3d3e 4a82 71be 36d0 c53d efc3 4c3f
00000230: 6173 853e f8ce a63f 3a73 6b3d 5fec d5bb
00000240: 79ce 533e 714d 853e 2c90 8d3e db6e 4e3d
00000250: 4201 02bf bf95 393c 1603 91be 0866 013f
00000260: 30e2 d33c 5c89 e43e 90f4 95bd 8cbf 8bbe
00000270: cea5 303f f9f2 a3bd 058d a73c f3f6 6ebe
00000280: 9ed6 26be 909e 433d 6383 383f 2b82 f8bd
00000290: d4e7 853d 5bb7 e3bd 042f 2cbe 9daf 04be
000002a0: e1bc 643d 06e7 0ebe a35b 6f3e 0104 4e3f
000002b0: e599 583e 91f8 a8bf c2ce 11bf 3fc9 1a3f
000002c0: 002f 0ebf 19c2 183f f48f 8bbe 166c 593e
000002d0: 7f9c 0b3f 4972 ebbd d60e d1bd 7fbc 9cbd
000002e0: da9b 48be 83b5 713d 87d9 8fbc 1c2e 123f
000002f0: 8070 1cbf 28f9 b43e b981 c3bf 2ce6 19bf
00000300: 14c7 da3e 5e9a 9bbe e964 3dbe 7576 55be
00000310: 54d4 59be 6d88 82bd 5a83 e43d 2979 1d3e
00000320: b278 e8bc 7600 d9bc 0c21 23bd 241d e5bd
00000330: eb38 00bf 1046 83bf 8c87 1abe 9659 b33f
00000340: 3d2c 913d b8f9 81be 10f2 8cbd 549f 2d3e
00000350: 9e30 b2be 4d51 a3bd dbec 893e 31b0 8ebe
00000360: 328c 023d 4862 6dbe fbe8 6ebe a3ab 8ebe
00000370: 2d17 8c3d 2703 333f 665e 39bf 52b1 f23d
00000380: bdc8 d53e 17ab 803f 6fce 0e3f 9cfe ccbe
00000390: 32f4 b03f a99a 363e 0ba3 4cbe 34e1 a33e
000003a0: 8f19 01be 6e93 5e3f bf85 f93c 8a73 4b3d
000003b0: fe21 873d d796 1abe e606 0c3f ecfe 08bd
000003c0: 8db1 e3bb 9f50 4abf 8ab0 31bd ab29 63bf
000003d0: 3b0c b1bf 6e0a 09bf efd4 5dbb 1d7b 953e
000003e0: 1ec9 a2be c6fc b3bd 2e60 4fbe 8034 423b
000003f0: 3f52 3abe 240a 88be efe0 e13d a69b 79bd

net.0.bias f4 [64]
0.43476054 -0.05349955 -0.41470253 0.22348739 0.15118393 0.124053046 0.2211293 -0.40924367
-0.07325915 0.245019 -0.020862779 0.010020781 0.2541824 0.7637347 -0.051232327 -0.08352178
0.19290967 -0.12977597 0.1537162 0.4307572 -0.18581918 -0.42778793 0.75075126 -0.16548267
0.38727516 -0.36666274 0.27651176 -0.24925362 0.009673031 0.25952336 -0.17828017 -0.25456792
0.71859837 -0.39907244 -0.83442074 0.2636004 -0.15742105 -0.42404613 -0.21239029 0.018975683
-0.14073555 -0.14779283 0.13648157 -0.0137124965 0.14290477 -0.07478508 0.031612523 -0.35032248
0.085145436 -0.2718183 0.13198048 -0.40427527 0.033759538 -0.06335827 -0.028134953 0.0452498
-0.3705033 -0.41235983 -0.071186855 0.17051204 0.4292537 -0.039396107 -0.120417625 -0.044071488
00000000: ef98 de3e 5822 5bbd e453 d4be e1d9 643e
00000010: f6cf 1a3e 860f fe3d b86f 623e 6388 d1be
00000020: e508 96bd 43e6 7a3e 6be8 aabc 342e 243c
00000030: 3224 823e 1e84 433f fdd8 51bd 780d abbd
00000040: 1d8a 453e fee3 04be c867 1d3e 358c dc3e
00000050: 6247 3ebe 0507 dbbe 3c31 403f 4a74 29be
00000060: ee48 c63e 38bb bbbe f392 8d3e 573c 7fbe
00000070: a27b 1e3c 3fe0 843e 148f 36be ba56 82be
00000080: 10f6 373f 3953 ccbe 999c 55bf a2f6 863e
00000090: fc32 21be 931c d9be d77c 59be e472 9b3c
000000a0: fb1c 10be 0157 17be d3c1 0b3e 61aa 60bc
000000b0: a155 123e ec28 99bd 227c 013d 785d b3be
000000c0: bb60 ae3d c52b 8bbe e425 073e 2bfd cebe
000000d0: 7147 0a3d fbc1 81bd 467b e6bc db57 393d
000000e0: 9cb2 bdbe d420 d3be 6aca 91bd b59a 2e3e
000000f0: 24c7 db3e d05d 21bd 849d f6bd 4e84 34bd

net.2.weight f4 [64, 64]
-0.027135698 0.1218234 0.06416731 0.11503449 -0.15094098 0.3092361 0.24288215 -0.056189373
-0.15303738 -0.10568533 0.25956666 0.031152459 0.10183578 0.13996449 0.0759374 -0.064972386
-0.12639605 0.23009716 0.17852099 -0.28541818 0.2615349 -0.20744526 -0.07393219 0.010140613
0.19485153 0.38072133 -0.03997565 0.5896841 0.117002316 -0.23147373 0.09838116 0.28233743
-0.049736474 0.43700466 0.013365949 -0.16385299 -0.13973005 0.41199246 0.5402291 0.21691495
0.16593081 0.28259194 -0.10102435 0.13597222 -0.44938478 0.26372197 -0.42374882 -0.3546995
-0.014885726 0.050454177 0.2017203 -0.42052123 0.25159004 0.28681743 0.12184469 0.4473196
0.073158145 0.13588914 -0.07593691 0.2978893 0.055089146 0.3133949 -0.21332893 0.11141334
-0.097829044 0.25445926 0.22565046 0.21190065 -0.080008045 -0.11739025 0.006177234 0.27410847
0.067718565 -0.057729304 -0.022221003 0.16716927 -0.35312212 -0.25466654 -0.056913637 0.04765797
0.13458586 -0.24221236 0.45744956 -0.02327321 -0.46603122 -0.6661998 -0.24453194 -0.37561357
0.07950965 -0.42814252 0.03025614 0.3911215 -0.38642824 0.085544206 0.06573049 0.1009309
-0.27369443 0.031928968 0.041861665 -0.075001694 -0.009125918 0.43132046 -0.20475109 -0.06936846
0.084422596 0.26369172 0.5177322 -0.10967901 -0.123829804 -0.11024633 -0.18215291 -0.2413654
0.022526411 0.30615205 -0.124171846 -0.40094703 -0.377266 0.06585277 0.049707584 -0.47550452
-0.111697085 -0.014629716 0.018228227 0.43995252 0.22582678 0.18181974 0.19312653 0.13409951
0.28422272 0.045577914 0.02560744 0.8229651 0.68956643 0.23570012 -0.49626136 -0.08089645
-0.48050243 -0.37608093 -0.5714817 -0.39935637 0.0019436267 -0.10253592 -0.08724775 -0.32113877
-0.0712701 0.09163969 0.060430642 -0.2241108 0.16610733 0.33477953 -0.06041378 0.13846391
-0.45841718 0.39711407 0.20896606 0.10308415 0.1153203 -0.12606382 0.048317254 -0.3294392
0.03441729 0.31032437 0.023656351 0.0368521 -0.17713727 -0.37374485 0.27141944 -0.42568853
-0.29994565 0.9253538 -0.22822115 0.587793 0.389739 -0.12700887 -0.05282588 -0.43746987
-0.1753592 -0.21983548 -0.021641765 -0.063426174 -0.61815965 0.20438902 -0.2587371 -0.44636193
0.61157167 0.3576846 -0.1869277 -0.005656333 0.9025486 0.09864738 -0.30237424 0.28152475
0.40362442 -0.30758443 0.035726905 -0.35961887 -0.24894045 0.48884597 0.5811745 -0.2576833
0.30463216 -0.4722049 0.30216256 0.38607097 0.29061693 0.045763023 -0.08025323 -0.4751061
0.23532239 -0.23551427 0.5536448 -0.75466543 -0.08001553 0.117167674 -0.5324545 0.034855086
0.6068513 -0.2349292 -0.03709582 0.016265223 -0.18220751 -0.008118525 0.57221 0.18984427
-0.1507268 0.5017037 -0.055914808 0.34010205 -0.11356718 0.7838706 0.4364629 0.3098884
-0.11950974 0.45333886 -0.20410049 0.18220186 -0.65588766 0.060784593 0.6404291 0.44451848
0.32467556 0.32036656 0.12501396 -0.34217986 0.1828039 -0.4493701 0.1711292 0.18265885
0.42161882 -0.26345295 0.2910035 0.06509302 -0.1448341 -0.09572207 -0.13176511 0.34287608
00000000: af4b debc 8c7e f93d 276a 833d 3497 eb3d
00000010: 4690 1abe 3254 9e3e 19b6 783e d426 66bd
00000020: d5b5 1cbe 8d71 d8bd ece5 843e 7133 ff3c
00000030: 478f d03d da52 0f3e 1185 9b3d 3e10 85bd
00000040: f76d 01be 979e 6b3e 35ce 363e 5522 92be
00000050: e7e7 853e 886c 54be c369 97bd d024 263c
00000060: 2987 473e e8ed c23e 82bd 23bd 8af5 163f
00000070: e99e ef3d 7307 6dbe 107c c93d 888e 903e
00000080: 79b8 4bbd 13bf df3e dafc 5a3c 14c9 27be
00000090: 6515 0fbe adf0 d23e 744c 0a3f f41e 5e3e
000000a0: c4e9 293e e4af 903e dbe5 cebd 4d3c 0b3e
000000b0: c315 e6be 9106 873e 9bf5 d8be 2c9b b5be
000000c0: 43e3 73bc 0aa9 4e3d c48f 4e3e 8f4e d7be
000000d0: 69d0 803e bcd9 923e b589 f93d 1307 e53e
000000e0: f0d3 953d 8626 0b3e d084 9bbd f284 983e
000000f0: 28a5 613d 4c75 a03e e672 5abe ad2c e43d
00000100: 985a c8bd 7c48 823e ea10 673e 7cfc 583e
00000110: 42db a3bd 4d6a f0bd 656a ca3b f257 8c3e
00000120: 08b0 8a3d 9075 6cbd d208 b6bc 6c2e 2b3e
00000130: 6ccc b4be a763 82be 461e 69bd 0135 433d
00000140: e0d0 093e 8406 78be d436 ea3e 75a7 bebc
00000150: a59b eebe 128c 2abf 9566 7abe 6c50 c0be
00000160: f5d5 a23d 7f35 dbbe b9db f73c 1441 c83e
00000170: ecd9 c5be cd31 af3d b59d 863d dcb4 ce3d
00000180: ad21 8cbe f3c7 023d 2377 2b3d 7d9a 99bd
00000190: e084 15bc 09d6 dc3e 45aa 51be 0d11 8ebd
000001a0: c1e5 ac3d 9a02 873e 198a 043f 649f e0bd
000001b0: 7b9a fdbd d4c8 e1bd 4b86 3abe 7e28 77be
000001c0: 4f89 b83c f6bf 9c3e cf4d febd ee48 cdbe
000001d0: 0229 c1be d1dd 863d 2e9a 4b3d 5475 f3be
000001e0: 71c1 e4bd 7ab1 6fbc 5d53 953c 7541 e13e
000001f0: 233f 673e f42e 3a3e f6c2 453e 6251 093e
00000200: a485 913e e8af 3a3d b2c6 d13c d7ad 523f
00000210: 6d87 303f 5f5b 713e f815 febe 0aad a5bd
00000220: 6a04 f6be ae8d c0be a04c 12bf 7078 ccbe
00000230: 4ac1 fe3a 5afe d1bd f3ae b2bd 4d6c a4be
00000240: 0ff6 91bd 97ad bb3d 1f86 773d 4d7d 65be
00000250: 0a18 2a3e 3968 ab3e 7174 77bd 7cc9 0d3e
00000260: a8b5 eabe 8952 cb3e 33fb 553e c81d d33d
00000270: 0d2d ec3d e016 01be 50e8 453d 41ac a8be
00000280: 25f9 0c3d d6e2 9e3e f7ca c13c 3af2 163d
00000290: 7963 35be 7c5b bfbe 7df7 8a3e d9f3 d9be
000002a0: 7a92 99be fde3 6c3f ceb2 69be 9a79 163f
000002b0: df8b c73e 9d0e 02be f35f 58bd 0dfc dfbe
000002c0: 5d91 33be 8d1c 61be 124a b1bc 95e5 81bd
000002d0: b63f 1ebf 5b4b 513e 3079 84be 8d89 e4be
000002e0: f68f 1c3f 7022 b73e fa69 3fbe c358 b9bb
000002f0: 6d0d 673f a307 ca3d ccd0 9abe 0324 903e
00000300: dca7 ce3e b57b 9dbe 6056 123d f71f b8be
00000310: 3fea 7ebe 054a fa3e dac7 143f 11ef 83be
00000320: bff8 9b3e d7c4 f1be 0db5 9a3e 18ab c53e
00000330: becb 943e 0272 3b3d ce5b a4bd 1b41 f3be
00000340: 5af8 703e a72a 71be aabb 0d3f c131 41bf
00000350: 2fdf a3bd 9bf5 ef3d f04e 08bf 35c4 0e3d
00000360: 9b5a 1b3f 4891 70be c9f1 17bd a53e 853c
00000370: 9b94 3abe 9003 05bc 5b7c 123f 8966 423e
00000380: 2058 1abe a76f 003f ed06 65bd db21 ae3e
00000390: e995 e8bd beab 483f 1178 df3e b1a9 9e3e
000003a0: 86c1 f4bd 081c e83e b8ff 50be 2093 3a3e
000003b0: 41e8 27bf 44f9 783d 29f3 233f ed97 e33e
000003c0: e03b a63e 1607 a43e a903 003e 3332 afbe
000003d0: f230 3b3e d613 e6be 7e3c 2f3e ec0a 3b3e
000003e0: 6cde d73e 4ee3 86be 69fe 943e 7d4f 853d
000003f0: 644f 14be ef09 c4bd 6fed 06be 748d af3e

net.2.bias f4 [64]
-0.13150488 -0.035351887 -0.02248592 0.18447383 0.13830979 -0.09990674 -0.10021902 0.13866034
0.025960576 -0.124082536 0.19236422 -0.05548212 0.08679077 0.13455844 0.21656449 -0.073134854
0.085235305 0.08450294 0.14815289 -0.015687952 0.079563566 -0.062123913 0.15091541 -0.058160376
-0.04768322 -0.22270799 0.14710248 -0.022580633 -0.023590254 -0.012258565 0.06364892 -0.069031306
-0.3287914 -0.10557968 -0.22723566 -0.048178 0.19471826 -0.1354464 -0.2612649 0.01365146
0.030777616 -0.11074946 0.15290587 -0.0799373 -0.0071504754 -0.123936035 -0.055085298 -0.072820306
-0.046814274 0.15760113 0.21076481 0.1949552 0.040827256 0.0792021 -0.024593957 0.18541531
-0.054083873 -0.17606601 -0.039518423 -0.026581546 -0.056973908 0.017657032 0.16738957 0.17736766
00000000: 37a9 06be 24cd 10bd 6434 b8bc b5e6 3c3e
00000010: 15a1 0d3e e89b ccbd a13f cdbd fafc 0d3e
00000020: 46ab d43c fc1e febd 20fb 443e 3841 63bd
00000030: 5cbf b13d b0c9 093e 15c3 5d3e bac7 95bd
00000040: d98f ae3d e10f ad3d 64b5 173e 0584 80bc
00000050: 39f2 a23d a575 7ebd 9289 1a3e 9339 6ebd
00000060: 7b4f 43bd 900d 64be 08a2 163e 05fb b8bc
00000070: 5940 c1bc 26d8 48bc 5d5a 823d 4960 8dbd
00000080: 5957 a8be 293a d8bd 77b0 68be 4b56 45bd
00000090: 3964 473e 76b2 0abe 83c4 85be 60aa 5f3c
000000a0: 5721 fc3c 9dd0 e2bd 5b93 1c3e 2bb6 a3bd
000000b0: 894e eabb 2dd2 fdbd 1fa1 61bd d022 95bd
000000c0: 53c0 3fbd 3162 213e bbd2 573e 56a2 473e
000000d0: 7b3a 273d b634 a23d 4479 c9bc 83dd 3d3e
000000e0: 0d87 5dbd a64a 34be 12de 21bd 8bc1 d9bc
000000f0: 795d 69bd 7ba5 903c 2c68 2b3e de9f 353e

net.4.weight f4 [17, 64]
0.015422957 0.010237038 0.009757397 0.029447434 -0.009801222 -0.0014637603 0.0015039212 0.01502043
0.004473813 -0.028078485 -0.016281841 -0.021215642 0.012512286 0.032986604 -0.120004915 0.057712052
-0.0025824083 0.00713206 0.009850173 -0.025011487 0.010094747 0.026228568 0.031715967 -0.020213924
0.040146492 0.11822624 -0.051120244 0.051349897 0.008613942 -0.01507473 0.043848015 -0.008245881
0.025312958 -0.03773326 0.011511332 0.02577226 0.034154456 0.033029813 -0.03621907 -0.027178802
0.0005953153 -0.03591393 0.023721868 -0.0028503414 0.016469657 -0.04059627 -0.0009908035 0.056516133
-0.0454245 -0.037509304 -0.01920567 0.020288134 -0.02714445 0.0048492076 -0.0020001417 -0.058680043
0.07177008 0.012591302 -0.040161017 -0.09394854 -0.0010499175 0.011923821 0.032875758 0.0069994703
-0.08445025 -0.012120863 0.0738045 -0.1620778 -0.004800038 0.028204968 -0.053443275 -0.023779633
-0.0151633555 0.05370365 -0.014249107 -0.06668953 0.17073894 -0.056120433 -0.026553743 0.083640754
-0.14641929 -0.029513896 -0.105325565 0.053577755 0.08574563 0.21093029 -0.16569275 -0.078523904
0.13118395 -0.15998292 -0.01551454 0.11798245 0.02789373 -0.0051628966 0.2253894 0.047843534
0.033287246 -0.005487616 0.12039799 -0.027005108 -0.015396502 0.044612247 -0.08724854 -0.11880477
0.07056248 -0.00038338336 -0.12375746 -0.04272538 0.0074902116 0.040825896 -0.070444815 0.07201807
-0.0427178 -0.056062147 0.01981941 -0.018838057 0.09401631 -0.026599882 0.11177336 -0.0105909165
-0.0062155193 0.0062088277 -0.08667137 -0.11456094 -0.031912733 -0.01138256 -0.03762674 -0.033742234
0.0062840623 0.21514387 -0.059645563 -0.07939382 0.102520466 0.09318497 -0.076583534 -0.07662898
-0.106041476 -0.011710791 -0.059321515 -0.06298157 0.097516365 0.029615095 0.032252114 0.17602545
-0.16421305 0.029580506 -0.13235188 0.061900754 0.029871702 0.22000434 -0.19493826 -0.17345642
-0.017886978 -0.06999328 -0.054658674 0.13089937 -9.167223e-05 -0.019741055 0.25035116 0.039353404
-0.0883121 0.15877414 0.17645922 -0.037992217 0.06353281 0.08590725 0.04372471 0.09906632
0.024489973 -0.14544338 -0.24535927 -0.06353043 0.08412829 0.10943563 -0.23464005 0.023702806
-0.08642367 -0.08203811 -0.07949723 0.0026517878 0.037436765 0.108434014 0.12287807 -0.07439631
0.08201252 0.04679159 0.001645083 -0.1549229 -0.026238175 0.019652592 0.07211922 0.041366156
-0.024552766 -0.13011876 0.04235417 0.114104256 0.005400439 -0.08376189 0.009535298 -0.049639974
0.11952409 0.045988955 0.050377477 -0.119939364 -0.049606554 0.04472073 -0.08930579 -0.027900591
0.013645702 0.051370367 0.0026552312 0.05530609 0.05218275 0.0027813956 0.028996369 0.06693974
0.075355016 -0.1975519 -0.004467342 0.06629016 0.15618269 -0.010866457 -0.053428754 -0.11366203
0.05044141 -0.11678222 0.050996646 0.091645025 -0.08954857 -0.15492114 -0.08740627 -0.08054512
-0.020651143 0.109825075 0.18545301 -0.057140883 0.06572655 -0.017848643 0.14141366 0.061400786
0.002332862 -0.03051095 0.14939111 0.06237682 0.05467259 0.0223845 -0.06725475 0.06991995
-0.027401086 0.12435928 -0.13851006 0.12325134 -0.07585104 0.08422639 -0.05481754 -0.06955084
00000000: 92b0 7c3c 40b9 273c 7ddd 1f3c bf3b f13c
00000010: 4e95 20bc a5db bfba 391f c53a 4018 763c
00000020: 1099 923b da04 e6bc 7f61 85bc 6dcc adbc
00000030: 5500 4d3c f61c 073d 23c5 f5bd 7963 6c3d
00000040: 9f3d 29bb 0eb4 e93b 9f62 213c e4e4 ccbc
00000050: 7064 253c 4bdd d63c 9ae8 013d ac97 a5bc
00000060: a670 243d 9920 f23d 7663 51bd 4554 523d
00000070: 7e21 0d3c 00fc 76bc fa99 333d bb19 07bc
00000080: 1f5d cf3c 318e 1abd 079a 3c3c 5920 d33c
00000090: 8be5 0b3d 454a 073d 735a 14bd 14a6 debc
000000a0: ef0e 1c3a 7c1a 13bd 5d54 c23c cbcc 3abb
000000b0: 60eb 863c 4648 26bd d9dd 81ba 767d 673d
000000c0: 0a0f 3abd 5ba3 19bd 3655 9dbc 4d33 a63c
000000d0: 0a5e debc 1ae6 9e3b cf14 03bb 7c5a 70bd
000000e0: 31fc 923d c04b 4e3c e17f 24bd 1868 c0bd
000000f0: 639d 89ba 215c 433c bba8 063d d05b e53b
00000100: 41f4 acbd 9696 46bc d026 973d b9f7 25be
00000110: a349 9dbb 1b0e e73c 56e7 5abd 81cd c2bc
00000120: b96f 78bc 5cf8 5b3d 1675 69bc 8594 88bd
00000130: 30d6 2e3e 8ade 65bd 3c87 d9bc d84b ab3d
00000140: f0ee 15be 20c7 f1bc eeb4 d7bd 5974 5b3d
00000150: 689b af3d 1cfe 573e 5cab 29be 24d1 a0bd
00000160: 1655 063e 90d2 23be b230 7ebc c8a0 f13d
00000170: 6481 e43c 842d a9bb 7bcc 663e 95f7 433d
00000180: 3558 083d 76d1 b3bb 3993 f63d d139 ddbc
00000190: 9c41 7cbc 55bb 363d 5daf b2bd ea4f f3bd
000001a0: 1083 903d d800 c9b9 8d74 fdbd cf00 2fbd
000001b0: 7370 f53b 0e39 273d 5f45 90bd 367e 933d
000001c0: dcf8 2ebd 6ca1 65bd 515c a23c 4552 9abc
000001d0: a08b c03d ffe7 d9bc 6ee9 e43d 8685 2dbc
000001e0: 8eab cbbb 6c73 cb3b c280 b1bd ed9e eabd
000001f0: edb6 02bd eb7d 3abc 7f1e 1abd 4c35 0abd
00000200: 89ea cd3b ad4e 5c3e e84e 74bd 3a99 a2bd
00000210: 40f6 d13d c3d7 be3d d4d7 9cbd a8ef 9cbd
00000220: 462c d9bd 9ede 3fbc 1efb 72bd 7bfc 80bd
00000230: a9b6 c73d 5b9b f23c cb1a 043d 0440 343e
00000240: 7727 28be d152 f23c 4087 07be a58b 7d3d
00000250: 80b5 f43c d148 613e e59d 47be 8f9e 31be
00000260: b687 92bc a358 8fbd c6e1 5fbd 7c0a 063e
00000270: 2740 c0b8 feb7 a1bc 072e 803e 0931 213d
00000280: f9dc b4bd b095 223e bab1 343e ba9d 1bbd
00000290: 7d1d 823d 24f0 af3d ae18 333d 48e3 ca3d
000002a0: 329f c83c 1cef 14be 763f 7bbe 3e1c 82bd
000002b0: 744b ac3d ca1f e03d 7b45 70be 632c c23c
000002c0: e5fe b0bd 9903 a8bd 72cf a2bd 9ec9 2d3b
000002d0: 4b57 193d a712 de3d 7fa7 fb3d 185d 98bd
000002e0: 2ef6 a73d 8aa8 3f3d d39f d73a 1ca4 1ebe
000002f0: 71f1 d6bc 79fe a03c 3eb3 933d 8f6f 293d
00000300: e222 c9bc da3d 05be 917b 2d3d 7eaf e93d
00000310: 2af6 b03b 5b8b abbd f039 1c3c 4953 4bbd
00000320: 0cc9 f43d ea5e 3c3d 9d58 4e3d c5a2 f5bd
00000330: 3e30 4bbd 162d 373d f4e5 b6bd c88f e4bc
00000340: 3992 5f3c bc69 523d 6303 2e3b a388 623d
00000350: 94bd 553d 1348 363b cb89 ed3c b417 893d
00000360: bb53 9a3d 0c4b 4abe c862 92bb 23c3 873d
00000370: 5bee 1f3e 3909 32bc 1cd8 5abd a3c7 e8bd
00000380: a79b 4e3d 842b efbd dce1 503d 63b0 bb3d
00000390: 3e65 b7bd a6a3 1ebe 0f02 b3bd d7f4 a4bd
000003a0: 962c a9bc f8eb e03d 65e7 3d3e 8f0c 6abd
000003b0: a49b 863d 5137 92bc bece 103e 647f 7b3d
000003c0: eee2 183b 1af2 f9bc fcf9 183e d67e 7f3d
000003d0: 5ef0 5f3d b35f b73c dcbc 89bd 3132 8f3d
000003e0: 3e78 e0bc 14b0 fe3d 95d5 0dbe 336b fc3d
000003f0: ca57 9bbd e37e ac3d 5b88 60bd ac70 8ebd

net.4.bias f4 [17]
0.00033956426 0.04145654 0.03877615 -0.023941105 0.048761036 0.06518339 0.040022995 0.02819658
0.14487775 0.07939348 0.17404972 -0.19659945 0.122046225 0.9256107 0.147608 -0.3178847
0.18189956
00000000: 8b07 b239 55ce 293d bed3 1e3d 2320 c4bc
00000010: a7b9 473d df7e 853d 27ef 233d 84fc e63c
00000020: d55a 143e 0d99 a23d 173a 323e 5e51 49be
00000030: 5ff3 f93d d3f4 6c3f 8d26 173e c9c1 a2be
00000040: e143 3a3e
