Mujoco/ckpt_tunc/halfcheetah_ep140.pth (torch, 27607 bytes, 6 tensors)

net.0.weight f4 [64, 17]
0.15162197 -0.09111904 0.7896399 0.79667556 -0.50786877 0.67622745 0.16765898 0.037069157
0.073203385 0.5324193 -0.29808566 -0.058456063 -0.15871024 0.12826045 0.036200386 -0.022609375
-0.23853764 0.35984838 0.07434038 0.056875773 -0.8925743 -0.45978785 0.07490603 0.18435341
0.41266462 -0.044984445 -0.4671753 -0.050050706 -0.051619876 -0.32715714 0.21035232 -0.24637388
-0.20601624 -0.016376112 0.16425055 -0.21133709 -0.54076916 -0.18717442 -0.43217683 0.9848656
0.7285745 0.9951946 0.034473624 -0.07352407 0.09391235 0.178317 0.06065749 -0.065128006
-0.1487283 0.049178086 0.21175697 0.20330235 0.04024693 0.36967853 -0.73581606 0.6052734
-0.15727293 0.012830771 0.33396724 0.12298968 0.5513428 0.53273326 0.023588432 -0.009097359
-0.02069254 0.06158999 0.03598174 0.02258896 -0.1156516 0.4961035 0.1500792 -0.72514284
0.20907846 0.109961376 -0.23948045 0.45483664 0.118007496 -0.24473004 -0.099867366 -0.018134939
0.12399758 0.02728167 0.08930691 0.39651263 -0.07445279 -0.32764366 0.5292597 0.20934539
0.3222816 0.0823741 0.46957225 -0.6370276 -0.29891348 -0.14303821 0.549049 0.14192031
-0.06276371 -0.0791266 0.23701498 -0.10655797 0.027269235 -0.16168678 0.20031144 0.40573582
0.51819754 -0.81215197 -0.06580096 0.13950351 0.39126384 -0.23047711 -0.039023943 -0.5361527
0.033490226 0.07459047 0.016161716 0.062874675 -0.015971186 0.38329518 0.036499366 -0.1746557
-0.5352059 0.8109445 -0.599847 0.54241085 -0.46581277 -0.25870502 0.37702844 -0.10900238
0.0602084 0.41874534 -0.118817836 -0.07313473 0.09956718 0.16783312 0.08844774 0.24672809
0.08775189 0.058648992 -0.49242792 -0.6508502 0.3957792 -0.62959 0.14463447 -0.15793243
0.027211215 -0.64701796 -0.92475677 0.07202725 0.26240095 -0.03511497 0.049709093 0.06467223
-0.24799402 -0.035829943 0.17412055 -0.24655135 0.5158669 0.14699487 -0.4438988 -0.21424386
-0.34424227 -0.115020245 0.42653286 -0.35642284 0.23740517 0.2631118 -0.13881886 0.021735396
-0.18891162 -0.14394423 -0.6186829 -0.33154136 -0.31892657 -0.20397717 -0.1981443 0.004761682
0.2443671 0.041989677 0.12315604 0.23901641 0.09145164 -0.050123733 -0.03415489 -0.2320994
-0.118121736 -0.08713752 -0.13683097 0.18322419 0.34584564 -0.5550316 0.41290992 -0.58237123
-0.36568743 0.49358055 0.35943514 -0.032511387 0.18622254 0.14133295 -0.20590691 0.012996358
0.046993636 -0.070478395 0.01788769 -0.09469485 -0.3509137 0.36451066 -0.5239215 -0.019285006
-0.03064981 0.51771444 -0.052101146 0.1258631 -0.0124095995 -0.39865655 0.510018 -0.018726729
-0.52377737 -0.13138287 0.10794821 0.25780448 0.11710551 -0.6376196 -0.118178934 0.35313335
-0.19113626 -0.6602298 0.41150945 0.16953568 0.0755767 -0.069667265 0.44340515 -0.16865422
-0.0975996 -0.39466608 0.05540221 0.031322792 -0.08685186 -0.19029051 0.44325775 -0.37864214
0.7736385 -0.37969786 -0.4916022 0.32983074 -0.345139 0.38544208 -0.11003077 -0.39331076
-0.5596793 0.120609865 -0.032021873 0.015148932 -0.06176668 0.012614481 -0.041126907 0.3536282
00000000: ca42 1b3e 9f9c babd d725 4a3f eef2 4b3f
00000010: b003 02bf 3e1d 2d3f ccae 2b3e d4d5 173d
00000020: a8eb 953d a24c 083f af9e 98be a06f 6fbd
00000030: f084 22be b556 033e db46 143d 4c37 b9bc
00000040: 3643 74be 0c3e b83e c53f 983d 92f6 683d
00000050: c07f 64bf 5069 ebbe 5568 993d 24c7 3c3e
00000060: c748 d33e 9c41 38bd 9a31 efbe f801 4dbd
00000070: 5d6f 53bd 2481 a7be 9966 573e 6f49 7cbe
00000080: ecf5 52be 3227 86bc 4c31 283e c068 58be
00000090: d96f 0abf a7aa 3fbe 4846 ddbe 2720 7c3f
000000a0: dc83 3a3f 13c5 7e3f 3734 0d3d ca93 96bd
000000b0: 1e55 c03d bb98 363e fd73 783d d561 85bd
000000c0: 3b4c 18be f66e 493d d2d6 583e 7e2e 503e
000000d0: f7d9 243d 8146 bd3e 715e 3cbf 33f3 1a3f
000000e0: 280c 21be 2738 523c c1fd aa3e 03e2 fb3d
000000f0: cd24 0d3f 3561 083f 873c c13c 170d 15bc
00000100: 6783 a9bc c945 7c3d 9761 133d 7c0c b93c
00000110: bfda ecbd 4701 fe3e 5dae 193e f6a2 39bf
00000120: aa18 563e 6e33 e13d 5d3a 75be 59e0 e83e
00000130: eaad f13d 839a 7abe 4387 ccbd b98f 94bc
00000140: 71f2 fd3d cf7d df3c 8be6 b63d b403 cb3e
00000150: b47a 98bd e9c0 a7be 907d 073f a35e 563e
00000160: 1802 a53e c1b3 a83d c66b f03e 3e14 23bf
00000170: 300b 99be 9c78 12be 7a8e 0c3f 8f53 113e
00000180: 438a 80bd 200d a2bd 0eb4 723e 113b dabd
00000190: bb63 df3c 3891 25be 711e 4d3e 9bbc cf3e
000001a0: 98a8 043f 31e9 4fbf a7c2 86bd 02da 0e3e
000001b0: bc53 c83e 3102 6cbe 92d7 1fbd 4e41 09bf
000001c0: 0c2d 093d e3c2 983d 9365 843c 70c4 803d
000001d0: 01d6 82bc 443f c43e 5c80 153d f2d8 32be
000001e0: 4103 09bf 0f9a 4f3f 938f 19bf 70db 0a3f
000001f0: 037f eebe fc74 84be df09 c13e a43c dfbd
00000200: 159d 763d ca65 d63e c456 f3bd a9c7 95bd
00000210: e1e9 cb3d 72dc 2b3e 1724 b53d 4aa6 7c3e
00000220: 43b7 b33d ed39 703d 831f fcbe 1e9e 26bf
00000230: 92a3 ca3e cf2c 21bf 0f1b 143e 0ab9 21be
00000240: 0eea de3c f8a2 25bf dcbc 6cbf 0683 933d
00000250: 6b59 863e b7d4 0fbd c39b 4b3d e072 843d
00000260: 25f2 7dbe 6bc2 12bd a84c 323e f577 7cbe
00000270: da0f 043f d385 163e b446 e3be be62 5bbe
00000280: 8640 b0be bc8f ebbd 8462 da3e 0e7d b6be
00000290: 571a 733e 97b6 863e 8826 0ebe 6e0e b23c
000002a0: 0c72 41be 1e66 13be 0162 1ebf cabf a9be
000002b0: 584a a3be 64df 50be 57e6 4abe e207 9c3b
000002c0: 5e3b 7a3e 5efd 2b3d 3c39 fc3d b8c0 743e
000002d0: ff4a bb3d 8b4e 4dbd ffe5 0bbd 77ab 6dbe
000002e0: cfe9 f1bd 2875 b2bd 6b1d 0cbe 1f9f 3b3e
000002f0: ae12 b13e 8d16 0ebf ee68 d33e 4816 15bf
00000300: 623b bbbe 97b6 fc3e e207 b83e a92a 05bd
00000310: 1fb1 3e3e 96b9 103e 43d9 52be adee 543c
00000320: 667c 403d fa56 90bd 3489 923c 60ef c1bd
00000330: f6aa b3be 24a1 ba3e b81f 06bf 97fb 9dbc
00000340: 4f15 fbbc ef88 043f 0368 55bd 42e2 003e
00000350: a251 4bbc b61c ccbe 8a90 023f cc68 99bc
00000360: 4616 06bf 3b89 06be f313 dd3d f3fe 833e
00000370: 03d5 ef3d 0a3b 23bf cc07 f2bd e5cd b43e
00000380: 39b9 43be d204 29bf 5eb1 d23e c39a 2d3e
00000390: f5c7 9a3d b6ad 8ebd 0006 e33e b1b3 2cbe
000003a0: 4de2 c7bd ac11 cabe 6eed 623d 544c 003d
000003b0: 63df b1bd 84db 42be aef2 e23e 62dd c1be
000003c0: 2c0d 463f c267 c2be 49b3 fbbe 93df a83e
000003d0: 0fb6 b0be aa58 c53e d057 e1bd 0760 c9be
000003e0: 2547 0fbf 4e02 f73d 5e29 03bd 3a33 783c
000003f0: 0fff 7cbd f8ac 4e3c b074 28bd c10e b53e

net.0.bias f4 [64]
-0.0037838873 0.10256682 0.23143491 0.031748 0.017503507 -0.06627008 0.27631155 0.10823424
0.01394171 -0.30192003 -0.05067637 0.25572664 0.27782542 -0.056248248 0.022309026 -0.1150722
-0.23150197 -0.2834138 0.066722184 0.07677001 0.08123013 -0.021378053 0.14490771 -0.00056023936
-0.045684278 0.045756407 -0.013861161 0.09984351 -0.21401507 -0.14362928 0.017413987 -0.07012651
-0.036276866 0.015162915 -0.16214335 -0.017681677 -0.105957724 0.19735122 -0.021800919 -0.120253734
-0.016935803 -0.014103182 -0.0013391256 0.34920356 0.09462646 0.071774766 -0.094238624 0.113637276
-0.17997253 0.14611736 -0.2791769 -0.23628321 -0.1713475 -0.14622194 -0.1337688 -0.10446143
0.06401619 -0.02970557 -0.25477472 -0.03490114 0.034471784 -0.04554068 -0.091549486 0.0065980027
00000000: 18fb 77bb 8e0e d23d 46fd 6c3e 310a 023d
00000010: 8463 8f3c 9cb8 87bd b578 8d3e eaa9 dd3d
00000020: c56b 643c 4395 9abe 0692 4fbd 9aee 823e
00000030: 223f 8e3e 9064 66bd 6bc1 b63c f9aa ebbd
00000040: da0e 6dbe 9d1b 91be a4a5 883d 9839 9d3d
00000050: fb5b a63d 0721 afbc b062 143e 07dd 12ba
00000060: 701f 3bbd 126b 3b3d ec19 63bc c17a cc3d
00000070: c426 5bbe 8e13 13be c7a7 8e3c 7d9e 8fbd
00000080: 0d97 14bd e06d 783c e808 26be 2ad9 90bc
00000090: 5d00 d9bd 7016 4a3e d797 b2bc 9747 f6bd
000000a0: f4bc 8abc 0811 67bc 9985 afba cfca b23e
000000b0: 84cb c13d a6fe 923d 2e00 c1bd a9ba e83d
000000c0: b84a 38be ca9f 153e 46f0 8ebe 3af4 71be
000000d0: b875 2fbe 34bb 15be b0fa 08be e0ef d5bd
000000e0: ec1a 833d 1859 f3bc d571 82be 7ff4 0ebd
000000f0: 4932 0d3d dd88 3abd 4c7e bbbd 0f34 d83b

net.2.weight f4 [64, 64]
0.098206475 0.054382935 0.10980013 -0.03304674 -0.07364124 -0.19538817 -0.09586848 0.08570869
-0.01497758 -0.06399703 -0.01388972 0.13484542 -0.41953474 -0.12112229 -0.07760843 -0.06997039
0.13866083 0.18846412 0.19747856 -0.113543645 0.16890864 -0.15781195 -0.14893064 -0.005514085
-0.22900279 0.2168088 -0.58113176 -0.05565533 0.0066522667 -0.050958887 0.20280284 0.30289516
-0.01883759 0.33264777 0.055381708 -0.3040567 -0.06647161 0.06695373 0.16647403 -0.2918094
0.07101977 -0.14299065 -0.17421357 -0.28990558 0.47376272 0.11060829 0.12953818 0.18720539
0.19685288 -0.4270813 -0.15284689 -0.18145871 0.24946679 -0.19192027 -0.2177528 -0.4134997
0.038291708 -0.19349328 0.15794888 -0.3938563 -0.23669957 0.10615618 0.09647941 0.2627291
0.19762427 -0.023881527 0.30735153 -0.20017345 -0.08505503 0.16333503 0.038097266 -0.50121737
0.025945181 0.2833035 0.228719 -0.014187821 0.049780324 0.29142547 0.3187725 0.29384142
-0.27311233 -0.26925188 -0.27104613 -0.161724 -0.27609634 0.12340651 0.37355876 0.068205215
0.19788681 0.007944287 0.08446899 0.43760678 -0.035639722 -0.2593336 -0.057454813 -0.027564507
-0.03132885 -0.12620941 0.12634525 -0.25157106 -0.035249643 -0.28319505 -0.09921422 0.18220285
0.09742776 0.3103536 -0.092104495 0.38909665 -0.20743087 0.5156506 0.0835053 0.023996504
0.14557809 0.088472866 0.097902454 0.0563062 -0.0627385 -0.03882768 0.30228087 0.3778759
-0.29749084 -0.05083342 0.03262261 0.2721038 -0.05521069 -0.18175328 0.64263874 0.18951899
-0.29614124 -0.09124344 0.14268371 0.11912947 0.10811777 -0.06412503 0.06825288 0.18807054
-0.248711 -0.2515889 -0.18927447 0.10299656 0.054851364 -0.24674997 -0.022064362 -0.026470512
-0.24135037 -0.2611738 -0.04782322 0.21352875 -0.072134264 0.23814274 -0.14024712 -0.07194106
0.08140525 -0.23775226 0.1777813 0.13839793 -0.2427778 -0.04633381 0.075569816 -0.4405327
-0.0014078355 -0.07857457 0.22060578 0.13315879 -0.13507025 0.15366036 0.084717155 0.20847616
-0.053179756 0.069548234 -0.02748615 -0.06466879 -0.0006350918 -0.27402693 0.033081263 -0.13899688
-0.29130378 0.55763716 -0.188276 0.07487774 -0.2506884 -0.25820938 0.094706245 -0.009563336
-0.16299082 0.12209947 -0.0060129156 -0.23773128 -0.18434952 -0.23863055 -0.24762338 0.018553656
0.07563655 0.236401 0.7086951 -0.21495855 0.2685564 -0.035868987 0.5404232 -1.5737665e-05
0.15378113 -0.46145314 -0.024149166 -0.019203233 0.17679864 0.22132885 0.4510016 -0.33017755
-0.49287233 -0.3529734 0.014368173 0.14972953 -0.3080033 -0.09793781 0.037926327 0.08248431
0.06367092 -0.0642406 -0.098425925 0.34358245 -0.2267118 -0.0008814091 0.3015442 -0.10093973
-0.092001386 -0.29156607 -0.2365066 -0.14408629 -0.014438356 0.087566525 0.23515789 0.006928123
0.06176727 0.05317236 -0.068015 0.7264939 0.093242176 0.16257533 0.1579619 0.26358715
-0.08349689 0.09233133 -0.14969209 -0.30392253 0.13091646 -0.09831663 -0.010677281 -0.13425924
-0.06362426 -0.16590577 0.04230648 0.11729277 0.0378447 -0.071833685 -0.060642127 0.12962191
00000000: 7a20 c93d a4c0 5e3d e4de e03d 055c 07bd
00000010: 38d1 96bd d613 48be b256 c4bd 0a88 af3d
00000020: 8664 75bc e010 83bd b591 63bc eb14 0a3e
00000030: 42cd d6be f70e f8bd 2bf1 9ebd a34c 8fbd
00000040: 1bfd 0d3e bdfc 403e d237 4a3e 9289 e8bd
00000050: 63f6 2c3e 7599 21be 4681 18be 7faf b4bb
00000060: b57f 6abe 2003 5e3e 0dc5 14bf d8f6 63bd
00000070: 42fb d93b 44ba 50bd 8cab 4f3e 1315 9b3e
00000080: 4a51 9abc cf50 aa3e eed7 623d 52ad 9bbe
00000090: 4422 88bd 0a1f 893d 2b78 2a3e 0b68 95be
000000a0: d072 913d 246c 12be 0b65 32be 816e 94be
000000b0: 0791 f23e 9986 e23d a8a5 043e c5b2 3f3e
000000c0: cd93 493e 66aa dabe e583 1cbe 50d0 39be
000000d0: 3974 7f3e bf86 44be 97fa 5ebe 3cb6 d3be
000000e0: c4d7 1c3d 1a23 46be 5abd 213e 88a7 c9be
000000f0: 5f61 72be 6968 d93d ff96 c53d 6e84 863e
00000100: 045e 4a3e 31a3 c3bc 2e5d 9d3e 45fa 4cbe
00000110: 5531 aebd 4c41 273e e10b 1c3d c84f 00bf
00000120: fd8a d43c 280d 913e 5035 6a3e 0974 68bc
00000130: 74e6 4b3d b835 953e 2636 a33e 6272 963e
00000140: 61d5 8bbe 62db 89be 8fc6 8abe fa9a 25be
00000150: 805c 8dbe 8dbc fc3d 1843 bf3e 2daf 8b3d
00000160: d7a2 4a3e c128 023c 14fe ac3d ff0d e03e
00000170: f5fa 11bd 60c7 84be bd55 6bbd f6ce e1bc
00000180: ae52 00bd 0a3d 01be a660 013e eccd 80be
00000190: ee61 10bd f1fe 90be d330 cbbd 6293 3a3e
000001a0: 3588 c73d abe6 9e3e 48a1 bcbd ad37 c73e
000001b0: c268 54be ad01 043f d404 ab3d 5194 c43c
000001c0: 6c12 153e 4331 b53d 1581 c83d 54a1 663d
000001d0: 0b7d 80bd c609 1fbd 8fc4 9a3e f378 c13e
000001e0: b850 98be b436 50bd 499f 053d 3051 8b3e
000001f0: 9b24 62bd 881d 3abe f983 243f 4411 423e
00000200: d39f 97be d7dd babd ae1b 123e 27fa f33d
00000210: d96c dd3d fc53 83bd 2ac8 8b3d 9095 403e
00000220: 19ae 7ebe 43d0 80be 2bd1 41be dcef d23d
00000230: d3ab 603d 06ac 7cbe 52c0 b4bc b0d8 d8bc
00000240: 8d24 77be 93b8 85be 48e2 43bd 48a7 5a3e
00000250: 21bb 93bd b1db 733e f19c 0fbe d655 93bd
00000260: ccb7 a63d 5475 73be 4d0c 363e 30b8 0d3e
00000270: be9a 78be 85c8 3dbd 59c4 9a3d 818d e1be
00000280: 1f87 b8ba b4eb a0bd 7be6 613e c75a 083e
00000290: db4f 0abe 2459 1d3e 3080 ad3d c67a 553e
000002a0: 04d3 59bd 4e6f 8e3d a22a e1bc 1271 84bd
000002b0: 4a7c 26ba 424d 8cbe 3880 073d 3355 0ebe
000002c0: c525 95be 4fc1 0e3f 6ccb 40be 8059 993d
000002d0: 3b5a 80be 0534 84be 59f5 c13d 8aaf 1cbc
000002e0: 11e7 26be 490f fa3d fe07 c5bb d46f 73be
000002f0: 1fc6 3cbe 915b 74be fc90 7dbe d6fd 973c
00000300: 56e7 9a3d 1b13 723e 0b6d 353f 181e 5cbe
00000310: 3980 893e 5ceb 12bd 2d59 0a3f 6104 84b7
00000320: cd78 1d3e 9643 ecbe 79d4 c5bc 1950 9dbc
00000330: b40a 353e 08a4 623e afe9 e63e 080d a9be
00000340: c359 fcbe eeb8 b4be 7c68 6b3c b352 193e
00000350: 9cb2 9dbe 9e93 c8bd a358 1b3d 89ed a83d
00000360: e665 823d 9390 83bd 8893 c9bd 0aea af3e
00000370: 2327 68be 5d0e 67ba 0064 9a3e 7db9 cebd
00000380: 396b bcbd 2648 95be c92e 72be 5b8b 13be
00000390: db8e 6cbc 1456 b33d 3bcd 703e 4f05 e33b
000003a0: adff 7c3d 43cb 593d 734b 8bbd 81fb 393f
000003b0: c1f5 be3d 267a 263e c4c0 213e e5f4 863e
000003c0: 6b00 abbd 3518 bd3d e248 19be bc9b 9bbe
000003d0: f70e 063e 3b5a c9bd c3ef 2ebc 417b 09be
000003e0: 704d 82bd 34e3 29be 8f49 2d3d 3137 f03d
000003f0: 0b03 1b3d 8a1d 93bd e163 78bd 9bbb 043e

net.2.bias f4 [64]
0.059373666 -0.12679452 0.07635199 0.15439455 -0.07317733 -0.020626903 0.12871584 0.024265725
0.09757476 0.103902556 -0.15125987 0.0029407637 -0.022654906 -0.0797575 -0.0665507 0.1112936
0.06735524 0.016687954 0.07874976 0.12414878 0.058337707 0.04159676 0.018361975 -0.08042149
0.20373179 0.057657346 -0.0073131975 0.06221281 -0.10265572 0.08549035 0.053811 0.029252218
0.011285592 0.037687216 0.0290555 0.0047369846 -0.101255156 0.032012478 -0.005684081 -0.082068235
-0.11854281 0.012741067 -0.043376505 -0.05755745 -0.14104311 -0.018406937 -0.04323122 0.10199794
-0.123338304 -0.06988761 -0.078315355 0.066312365 -0.06624374 -0.13937485 -0.07100084 -0.17850775
-0.014156193 0.006431759 -0.072853185 0.18791127 -0.10245962 -0.066449136 0.012152437 0.17733413
00000000: cd31 733d 6cd6 01be 6f5e 9c3d 9b19 1e3e
00000010: ffdd 95bd c0f9 a8bc 16ce 033e eac8 c63c
00000020: 47d5 c73d ddca d43d dee3 1abe d4b9 403b
00000030: c896 b9bc e657 a3bd bc4b 88bd e6ed e33d
00000040: 8bf1 893d 2db5 883c 8e47 a13d b741 fe3d
00000050: 85f3 6e3d 5d61 2a3d da6b 963c 06b4 a4bd
00000060: 119f 503e 1c2a 6c3d 8ca3 efbb dcd2 7e3d
00000070: 2a3d d2bd 9115 af3d ec68 5c3d 59a2 ef3c
00000080: 34e7 383c e95d 1a3d cd05 ee3c b538 9b3b
00000090: dd5e cfbd 841f 033d 8741 babb 6413 a8bd
000000a0: 93c6 f2bd e9bf 503c 90ab 31bd 5cc1 6bbd
000000b0: 9b6d 10be 25ca 96bc 3813 31bd 4ce4 d03d
000000c0: cb98 fcbd 3c21 8fbd cd63 a0bd c7ce 873d
000000d0: ccaa 87bd 48b8 0ebe e368 91bd bcca 36be
000000e0: 60ef 67bc 81c1 d23b 0d34 95bd d06b 403e
000000f0: 59d6 d1bd 7c16 88bd 041b 473c 1497 353e

net.4.weight f4 [17, 64]
-0.022243736 -0.016324822 -0.09600589 -0.04641632 0.23965733 0.06103614 -0.0028276108 0.106724985
-0.023938717 -0.07035869 0.06223116 0.120856345 0.020431744 -0.023983954 -0.03922329 0.0870709
-0.006100414 -0.06741484 -0.11205463 0.122108296 0.21206616 0.14885055 -0.06052048 0.10485567
-0.055742472 0.059167456 -0.105145924 0.052887075 -0.020022728 -0.06495096 -0.12558453 -0.09056658
0.018053694 -0.008111779 -0.23712642 -0.09515763 -0.028515227 -0.0051017166 0.057774894 0.040008433
0.07799807 -0.0174087 -0.018272493 0.19023907 0.1578432 -0.014384221 -0.109000154 0.050841447
0.106489144 -0.10640165 0.042285476 -0.009518491 -0.036153097 0.057132907 -0.20074806 0.039604563
-0.024591338 0.008102548 0.066202156 0.050253365 -0.009461903 0.010151015 -0.10213038 -0.03946286
0.021363778 -0.102309436 -0.011857912 0.048990414 -0.0914646 0.024520883 0.14587808 0.087558635
-0.03030961 -0.06384009 0.031055903 0.03316853 -0.07566142 0.16330102 -0.03630638 -0.09629161
0.25156498 -0.03426121 0.13235433 0.1406919 8.6338936e-05 -0.1600199 0.19145784 -0.08104429
0.13671046 0.09166498 -0.04839236 0.026081165 -0.016772438 -0.13535528 -0.029381685 -0.089625984
-0.09108096 0.0385495 -0.06343315 -0.023052521 0.019526422 0.11234105 -0.12149531 -0.08699279
-0.10763613 -0.13683955 0.13497773 0.07323879 0.1470098 0.018963197 -0.012795355 0.026373742
0.00069361675 -0.107290186 0.028410269 -0.08346847 0.07467617 0.11072848 0.012299268 -0.12892422
0.15931737 0.11372012 -0.17210156 0.10432069 0.026311185 -0.14354983 -0.024193518 0.066988826
-0.054642078 0.065765984 -0.08276833 0.017452715 0.20883648 -0.059724696 0.08093616 0.039947618
-0.15202202 0.060689762 -0.02771657 0.13474642 -0.11133108 0.042847406 -0.02555744 -0.18125273
0.21859203 0.28737283 -0.26641032 0.0019747813 0.012078512 -0.14164473 -0.19711904 -0.047099277
-0.29359493 -0.054963835 0.15461296 0.09204607 0.010046693 0.2995762 -0.1721213 -0.13049804
-0.03784159 -0.16074316 0.06864572 0.08481158 0.104063876 -0.0074536977 -0.17663936 -0.06335271
0.023091337 -0.056519624 -0.018364588 -0.060304765 -0.12532973 -0.14662497 0.10735294 -0.013692156
-0.017974988 -0.06706456 -0.1069917 -0.00998018 -0.19748758 0.018758943 0.017922945 0.14393431
-0.22283894 0.1001207 0.035046007 0.110264875 -0.084751196 -0.04290205 0.12478521 0.011648168
-0.04323026 -0.09242482 0.06352398 0.12661107 0.2502925 -0.070318334 -0.11268142 -0.08790788
0.067029044 -0.17762561 -0.10258258 -0.2264891 0.0060865427 0.037079096 -0.18035458 0.3188105
-0.094953224 0.0678795 0.12868097 0.22748381 0.02778048 -0.04083473 -0.15620534 -0.16148484
0.00541661 0.05227654 0.2669366 0.12878418 0.06924554 0.092315145 -0.026923375 -0.059723966
-0.044682506 -0.25423214 0.06965432 0.07088527 0.006302843 -0.3718253 0.09429549 -0.057463918
0.020376643 -0.12881109 -0.51251465 -0.08472303 -0.12198281 -0.11427485 -0.082995445 0.00036263818
0.06827229 0.19637589 0.12307633 -0.233437 0.058151986 -0.016433356 0.3140583 0.05611401
0.053884782 0.034372047 -0.119786315 -0.12648411 0.0024284285 0.15096298 0.13921812 -0.031544253
00000000: 7f38 b6bc a2bb 85bc bc9e c4bd 0a1f 3ebd
00000010: bb68 753e 0801 7a3d 704f 39bb a192 da3d
00000020: 211b c4bc 3818 90bd 1ae6 7e3d 8883 f73d
00000030: 7960 a73c ff79 c4bc 9aa8 20bd 3a52 b23d
00000040: fbe5 c7bb cb10 8abd e67c e5bd ea13 fa3d
00000050: df27 593e 476c 183e 53e4 77bd 92be d63d
00000060: 3852 64bd 9359 723d bf56 d7bd 1ea0 583d
00000070: b406 a4bc 0205 85bd 3b99 00be f97a b9bd
00000080: 57e5 933c 44e7 04bc 45d1 72be 01e2 c2bd
00000090: c498 e9bc 4d2c a7bb 5ea5 6c3d e2df 233d
000000a0: 74bd 9f3d b19c 8ebc 32b0 95bc 08ce 423e
000000b0: a6a1 213e ccab 6bbc 793b dfbd 1f3f 503d
000000c0: fb16 da3d 1ce9 d9bd 8933 2d3d 72f3 1bbc
000000d0: 4515 14bd 3204 6a3d e690 4dbe 6538 223d
000000e0: c673 c9bc 8dc0 043c ff94 873d 79d6 4d3d
000000f0: 1906 1bbc 7150 263c bc29 d1bd cfa3 21bd
00000100: 1703 af3c 9c87 d1bd b047 42bc 2caa 483d
00000110: cb51 bbbd 05e0 c83c 1061 153e f151 b33d
00000120: dc4b f8bc 98be 82bd f368 fe3c b9db 073d
00000130: 60f4 9abd 6238 273e 00b6 14bd 8934 c5bd
00000140: 20cd 803e 7c55 0cbd e587 073e 8a11 103e
00000150: dd10 b538 42dc 23be 860d 443e 8cfa a5bd
00000160: d4fd 0b3e d9ba bb3d 1137 46bd 2ba8 d53c
00000170: 5a66 89bc 939a 0abe dcb1 f0bc d48d b7bd
00000180: a888 babd 15e6 1d3d 3de9 81bd a4d8 bcbc
00000190: e0f5 9f3c 1013 e63d 88d2 f8bd 4729 b2bd
000001a0: 5570 dcbd ab1f 0cbe 9a37 0a3e 38fe 953d
000001b0: bd89 163e b558 9b3c 9ca3 51bc bf0d d83c
000001c0: d5d3 353a f5ba dbbd a7bc e83c 84f1 aabd
000001d0: d2ef 983d 9dc5 e23d de82 493c b604 04be
000001e0: 1824 233e 18e6 e83d 643b 30be 16a6 d53d
000001f0: 8e8a d73c bafe 12be 7c31 c6bc 7031 893d
00000200: 5fd0 5fbd 51b0 863d 7182 a9bd fff8 8e3c
00000210: 3bd9 553e e2a1 74bd dcc1 a53d 1da0 233d
00000220: a9ab 1bbe d495 783d dc0d e3bc f7fa 093e
00000230: 8d01 e4bd c380 2f3d d65d d1bc 519a 39be
00000240: 97d6 5f3e 8822 933e ef66 88be 556b 013b
00000250: f4e4 453c 510b 11be 93d9 49be 2ceb 40bd
00000260: 1352 96be c221 61bd dc52 1e3e a682 bc3d
00000270: e29a 243c 0d62 993e 9140 30be 47a1 05be
00000280: c8ff 1abd db99 24be 2196 8c3d b2b1 ad3d
00000290: 711f d53d 263e f4bb f3e0 34be 11bf 81bd
000002a0: 0b2a bd3c 1f81 67bd 5571 96bc 2102 77bd
000002b0: 7056 00be db24 16be dcdb db3d 1155 60bc
000002c0: 4840 93bc 2559 89bd 771e dbbd e983 23bc
000002d0: 2f3a 4abe 5bac 993c 24d3 923c 8463 133e
000002e0: e42f 64be 150c cd3d 678c 0f3d 8dd2 e13d
000002f0: 0992 adbd 0fba 2fbd 638f ff3d f5d7 3e3c
00000300: 3712 31bd 3949 bdbd dc18 823d 55a6 013e
00000310: 5726 803e 0f03 90bd 84c5 e6bd 0c09 b4bd
00000320: 8646 893d 7de3 35be d116 d2bd c2ec 67be
00000330: 9f71 c73b 40e0 173d dfae 38be 213b a33e
00000340: d676 c2bd 6804 8b3d f2c4 033e 84f1 683e
00000350: e493 e33c 5142 27bd 4bf4 1fbe 485c 25be
00000360: d17d b13b ed1f 563d eaab 883e 00e0 033e
00000370: 9bd0 8d3d b90f bd3d 698e dcbc 1ea1 74bd
00000380: 0105 37bd b72a 82be eda6 8e3d 4c2c 913d
00000390: 1488 ce3b e35f bebe fe1d c13d 495f 6bbd
000003a0: ebec a63c 0ee7 03be 2934 03bf 4583 adbd
000003b0: 20d2 f9bd ef08 eabd 84f9 a9bd 7920 be39
000003c0: 58d2 8b3d c316 493e 710f fc3d 1c0a 6fbe
000003d0: c730 6e3d 3f9f 86bc 40cc a03e ced7 653d
000003e0: 4ab6 5c3d b4c9 0c3d 8752 f5bd 0d85 01be
000003f0: 4526 1f3b 0a96 1a3e 328f 0e3e 8c34 01bd

net.4.bias f4 [17]
0.006306545 0.015833022 -0.052591152 -0.03402425 0.051998753 0.037298415 -0.012812375 0.032172043
-0.1566387 0.019691974 0.30518207 -0.3454717 0.21076465 -0.5152801 -0.2792862 -0.5056717
-0.6054553
00000000: 22a7 ce3b 41b4 813c d269 57bd 035d 0bbd
00000010: a5fc 543d 39c6 183d ffea 51bc d5c6 033d
00000020: e565 20be 1051 a13c d340 9c3e abe1 b0be
00000030: b0d2 573e 66e9 03bf 9afe 8ebe b373 01bf
00000040: 1eff 1abf
