Mujoco/ckpt_tunc/walker2d_ep020.pth (torch, 27983 bytes, 6 tensors)

net.0.weight f4 [64, 17]
0	0x3e95d0ba	0.29260808
1	0xbf3e0205	-0.7422183
2	0x3e173b75	0.14768775
3	0xbf0822d0	-0.5317812
4	0xbec6e816	-0.38848943
5	0x3ea845b9	0.32865694
6	0x3e853e37	0.2602403
7	0xbd3333a7	-0.04375043
8	0xbe464079	-0.19360532
9	0x3d0b9245	0.03407504
10	0x3db9d8cb	0.09074553
11	0x3dbbf583	0.09177687
12	0xbe909d76	-0.28245133
13	0xbe0584cb	-0.13038938
14	0xbd9d442a	-0.07679017
15	0x3dac47c2	0.08412124
16	0x3d175d8d	0.03695445
17	0xbe4ab30d	-0.19794865
18	0xbec493a6	-0.38393897
19	0x3e77844b	0.2417156
20	0xc0015b94	-2.0212145
21	0xbdb3b11f	-0.087740175
22	0xbd9e3676	-0.07725231
23	0xbe017d9c	-0.12645572
24	0xbe83a2da	-0.25710183
25	0x3b84b427	0.004049796
26	0xbde71211	-0.11282743
27	0x3e15b7cc	0.14620894
28	0xbc96ed22	-0.01842362
29	0xbdf6c8c3	-0.12050011
30	0x3cba7608	0.02276136
31	0xbca78d9a	-0.020453263
32	0xbbc57804	-0.00602627
33	0x3c35d5cb	0.0110983355
34	0xbdbf58a2	-0.09343077
35	0xbf5e6bff	-0.8688354
36	0xbf462951	-0.77406794
37	0x3f4fae9f	0.81125826
38	0xbf01b147	-0.5066113
39	0xbf85f89e	-1.0466497
40	0x3f25a22e	0.6470059
41	0x3effc319	0.49953535
42	0x3d8f408f	0.069947354
43	0xbe9719e4	-0.2951194
44	0xbdfdd409	-0.12393958
45	0x3e35eef8	0.1776694
46	0x3ec6ab54	0.38802588
47	0x3e086c73	0.1332262
48	0x3dbc10ab	0.09182867
49	0x3dda1f18	0.10650462
50	0xbde24cee	-0.110498294
51	0xbeb071fa	-0.34461957
52	0xbebc1b6a	-0.36739665
53	0x3f14cf42	0.5812875
54	0xbf17ef8f	-0.5934991
55	0x3f16dbee	0.58929336
56	0x3f852c34	1.0404115
57	0xbf315057	-0.69263214
58	0xbe2f0a03	-0.17093663
59	0x3ce450dd	0.02787059
60	0x3e041545	0.12898739
61	0x3ebb57b6	0.36590356
62	0x3c61eb11	0.013788954
63	0xbde8c9f7	-0.11366647
64	0xbd5779e6	-0.052606486
65	0xbe5422ee	-0.2071645
66	0xbe30d417	-0.17268406
67	0xbda5174c	-0.08061084
68	0x3ee4fe9a	0.44725496
69	0x3e83bedf	0.2573156
70	0x3cce9384	0.025216825
71	0x3e8a7841	0.2704487
72	0xbd421c67	-0.047390368
73	0x3f578340	0.84184647
74	0xbf1995ca	-0.59994185
75	0xbea3978c	-0.3195156
76	0x3de7965c	0.11307976
77	0xbdfbeb4f	-0.12300741
78	0xbf00380a	-0.5008551
79	0x3da56041	0.080749996
80	0xbf05ce0c	-0.5226753
81	0x3db4b5ee	0.08823763
82	0x3e931910	0.2873006
83	0xbe65c085	-0.22436722
84	0x3e1cd86c	0.15316933
85	0x3f23354f	0.6375322
86	0xbc14c4bb	-0.009080107
87	0xbf2ac80d	-0.66711503
88	0x3e54c9d8	0.20780122
89	0xbe17187a	-0.14755431
90	0xbfcd181d	-1.6022984
91	0xbebf3826	-0.37347525
92	0xbe269f00	-0.16271591
93	0x3df2919f	0.11844181
94	0x3f30eeca	0.69114363
95	0xbd8c0c46	-0.068382785
96	0x3d97c5b4	0.07410756
97	0xbdf8543f	-0.12125444
98	0xbe2f5dd2	-0.17125633
99	0x3d463844	0.048393503
100	0xbd9f5b57	-0.077810936
101	0x3d21163c	0.039327845
102	0x3ee4cb2e	0.44686264
103	0xbf30ebbd	-0.6910971
104	0xbf98aebd	-1.1928326
105	0x3eeb65ad	0.4597601
106	0xbd9dd371	-0.07706345
107	0xbf8f6a58	-1.1204329
108	0xbee774cd	-0.452063
109	0xbe7ed094	-0.24884254
110	0x3cf7a072	0.030227873
111	0x3ece0bac	0.4024328
112	0xbcb864b4	-0.022508956
113	0xbdffa67d	-0.12482927
114	0xbd88b805	-0.06675724
115	0x3d2fe982	0.0429473
116	0xbe9bfb07	-0.30464956
117	0xbd7aa8aa	-0.061196007
118	0x3c9b3b03	0.018949037
119	0xbefa8e42	-0.4893666
120	0x3ea4584f	0.32098624
121	0xbdc0752a	-0.09397347
122	0x3d7405c9	0.05957583
123	0x3bd9264e	0.0066268807
124	0xbce0b977	-0.027432187
125	0xbd938448	-0.07202965
126	0x3ef4e687	0.47832128
127	0x3c8b60b0	0.017013878
128	0xbf2510aa	-0.6447855
129	0xbe6fb75e	-0.23409793
130	0xbe9b5d70	-0.30344725
131	0x3e2d0f6f	0.16900419
132	0x3ca56ecc	0.020194434
133	0xbc9091c9	-0.01764764
134	0x3e80a25d	0.25123873
135	0x3db8be86	0.090207145
136	0xbe0cd370	-0.13752532
137	0x3e486409	0.1956941
138	0x3e6bb484	0.2301808
139	0xbe150c91	-0.14555575
140	0x3de73738	0.11289829
141	0x3f87d2eb	1.0611242
142	0x3d07d4d4	0.033161953
143	0xbe8627ef	-0.26202342
144	0xbe96f4ad	-0.29483548
145	0xbd809d8c	-0.0628005
146	0x3d5bcbbd	0.053661097
147	0x3ce99ac3	0.028516179
148	0xbeda29e4	-0.42610085
149	0xb8cce1c3	-9.7695294e-05
150	0x3d1b7670	0.037954748
151	0x3dce3226	0.10068159
152	0xbdf4333b	-0.11923834
153	0xbe7e3771	-0.24825837
154	0x3e016ec0	0.12639904
155	0xbeaa9afa	-0.33321363
156	0x3eb34d3c	0.35019863
157	0x3dfb6900	0.122758865
158	0xbcb87063	-0.022514528
159	0xbf077d04	-0.52925134
160	0x3e75b574	0.23995
161	0xbb1627a7	-0.0022911818
162	0xbd5b50c5	-0.053543825
163	0xbe19c531	-0.15016629
164	0xbc9ca6fa	-0.01912259
165	0x3d744028	0.059631497
166	0x3c680c7e	0.014163135
167	0x3e0d6758	0.13808954
168	0x3d8e734d	0.06955586
169	0x3d1858ca	0.03719405
170	0x3d061f4e	0.0327447
171	0xbe97cdb0	-0.29649115
172	0xbeed5f6a	-0.46361858
173	0x3e9f3f05	0.31102768
174	0xbe23fecc	-0.16015166
175	0xbe5635ab	-0.2091891
176	0x3e213745	0.1574374
177	0x3f3cd0a2	0.7375585
178	0x3d6ddd3f	0.058072325
179	0x3e4e11d2	0.20123985
180	0x3bd25a48	0.006419454
181	0xbe2e71d4	-0.1703561
182	0x3d118462	0.03552664
183	0xbd6750ff	-0.05647373
184	0x3debedf2	0.11519994
185	0xba8322c0	-0.0010004863
186	0x3e736ed6	0.2377275
187	0x3d504a58	0.05085215
188	0x3e2d49c2	0.16922668
189	0xbdf715b9	-0.1206469
190	0x3fbaf66f	1.4606456
191	0x3e50185d	0.20321794
192	0x3d73cde8	0.05952254
193	0x3f143d8c	0.57906413
194	0xbf0a151c	-0.5393846
195	0x3d7114d7	0.058857765
196	0x3cf52a0c	0.029927276
197	0x3dc069b8	0.09395164
198	0xbbe313af	-0.0069298367
199	0x3d799f87	0.060943153
200	0xbd3cd688	-0.04610303
201	0xbe022646	-0.12709913
202	0x3cc8f63b	0.024531474
203	0x3d3d04de	0.04614722
204	0xbdd40c42	-0.103539005
205	0x3f921607	1.1412972
206	0xbe4f2e68	-0.20232546
207	0x3efe4370	0.49660826
208	0xbf1be176	-0.608909
209	0x3f73959a	0.9515015
210	0xbef56d0a	-0.47934753
211	0xbf1365cf	-0.5757722
212	0x3e2186b4	0.15774041
213	0xbee0a132	-0.43872982
214	0x3e1f1ccc	0.15538329
215	0xbe947370	-0.28994322
216	0xbd1f9ebf	-0.03896975
217	0x3da63ecf	0.081174485
218	0x3dbdf379	0.09274954
219	0xbdb13e37	-0.08654445
220	0x3c4820ca	0.012214849
221	0xbea2b101	-0.31775668
222	0xbf2bc59e	-0.67098415
223	0xbec464ee	-0.38358253
224	0xbf69ca29	-0.91324097
225	0xbed0d137	-0.40784618
226	0xbf8097a9	-1.0046283
227	0x3eb8f3a9	0.36123398
228	0x3bcebb3b	0.0063089407
229	0x3cec10cc	0.028816603
230	0xbddfd46a	-0.10929187
231	0x3cf29e52	0.029616509
232	0x3dde6e31	0.10860861
233	0x3e19ea1b	0.1503071
234	0xbe88cba6	-0.2671787
235	0x3e15f688	0.14644825
236	0xbecba5b0	-0.39774847
237	0x3d645fb3	0.05575533
238	0x3efe2282	0.49635702
239	0x3e38ba48	0.1803981
240	0x3df74277	0.12073224
241	0xbda73228	-0.081638634
242	0x3f4e1259	0.80496746
243	0x3eb3456b	0.350139
244	0x3da7e5c5	0.08198122
245	0x3f09851b	0.5371873
246	0x3eac3c3e	0.3363971
247	0xbed68ae8	-0.41902852
248	0x3e041e38	0.12902153
249	0xbd931a57	-0.07182758
250	0x3f0714af	0.52765936
251	0xbd4f78bc	-0.05065225
252	0x3da5f93b	0.081041776
253	0x3eb3a20b	0.35084566
254	0x3d846bc9	0.06465871
255	0xbdac5c39	-0.084160276

net.0.bias f4 [64]
0	0x3d8e5cbd	0.06951282
1	0x3eab2733	0.33428344
2	0xbc4e6c70	-0.012599096
3	0x3c4d4733	0.012529182
4	0xbde377cd	-0.111068346
5	0x3c49c07c	0.012313958
6	0x3e9d65dc	0.30741775
7	0xbe82a668	-0.25517583
8	0x3e255eae	0.16149399
9	0x3d8ce350	0.06879294
10	0x3eac6e38	0.3367784
11	0xbd620fff	-0.055191036
12	0x3df7f504	0.1210728
13	0x3d80e177	0.06293004
14	0x3ee560de	0.44800466
15	0xbdce4d7c	-0.10073373
16	0x3e1f0db9	0.15532579
17	0x3e094d59	0.13408412
18	0x3d950063	0.072754644
19	0xbf087d9e	-0.53316677
20	0x3e259a53	0.16172151
21	0x3d90aa2f	0.0706371
22	0x3e8996e9	0.26872948
23	0xbe2da7ec	-0.16958588
24	0xbe999388	-0.2999537
25	0xbe33002b	-0.17480533
26	0x3cb215be	0.021738883
27	0x3e301e9a	0.17199174
28	0xbe1b469a	-0.15163651
29	0xbd5578a9	-0.052117024
30	0xbe760ab7	-0.24027525
31	0x3ec108e7	0.37702104
32	0x3e4a49c0	0.19754696
33	0xbe8c2e3b	-0.2737902
34	0xbe80428d	-0.25050774
35	0xbdba65ab	-0.09101423
36	0xbe3aafc9	-0.18231119
37	0x3ca0e755	0.019641558
38	0x3da6ce78	0.081448495
39	0x3cd37b1c	0.025815539
40	0x3ef2eded	0.47447148
41	0x3e37f0cf	0.17962955
42	0xbe493bc9	-0.19651712
43	0x3e11586e	0.1419389
44	0xbe30b81f	-0.17257737
45	0xbe2870bd	-0.16449256
46	0x3d92683c	0.071487874
47	0x3a53bac5	0.0008076842
48	0xbdb46aff	-0.088094704
49	0xbd5f1097	-0.05445918
50	0xbc87d59c	-0.01658135
51	0x3e965122	0.29358774
52	0x3e9e4d19	0.30918196
53	0xbc97d642	-0.018534783
54	0xbde216ff	-0.110395424
55	0x3daa1791	0.08305276
56	0xbf0c1fec	-0.5473621
57	0xbdb4b238	-0.08823055
58	0x3e22a33d	0.15882583
59	0x3cddcadd	0.027074272
60	0x3f11ba57	0.5692496
61	0x3e8ceb61	0.2752333
62	0x3d6a9b95	0.05727728
63	0x3d8281c3	0.06372406

net.2.weight f4 [64, 64]
0	0x3e1ae355	0.15125783
1	0x3dd8abb9	0.105796285
2	0xbe6968d7	-0.227939
3	0x3e27b6f6	0.16378388
4	0x3d687a91	0.056757513
5	0xbde81e99	-0.11333961
6	0xbed368da	-0.41290933
7	0xbe9ee894	-0.31036818
8	0x3d2351ef	0.03987306
9	0xbc7b0435	-0.015320827
10	0x3db55ab0	0.08855188
11	0xbe8dc1a7	-0.27686808
12	0xbe830772	-0.25591618
13	0x3d146f3f	0.036238905
14	0xbe690420	-0.2275548
15	0x3e3caf3b	0.1842622
16	0xbe80f7cf	-0.25189063
17	0xbe67dec4	-0.22643572
18	0xbe193478	-0.14961421
19	0xbebd47a3	-0.36968717
20	0xbda1e849	-0.07905633
21	0x3c219db4	0.0098642595
22	0xbe420745	-0.18948086
23	0x3ced38eb	0.028957805
24	0xbec90557	-0.39261886
25	0x3e39a8a0	0.18130732
26	0x3e484af0	0.19559836
27	0xbd4afae0	-0.04955566
28	0xbf1ae427	-0.6050438
29	0x3e5c9122	0.21539739
30	0x3e831ee1	0.25609496
31	0xbec35c62	-0.3815642
32	0xbe143e8b	-0.14476983
33	0x3dc6ceba	0.09707399
34	0x3d9ddffb	0.077087365
35	0x3d87a46d	0.066231586
36	0xbe109571	-0.14119507
37	0x3e4c9d4a	0.19981876
38	0xbd337daa	-0.043821014
39	0x3eb5189a	0.35370332
40	0xbee37ee5	-0.4443275
41	0x3cb2b0da	0.021812845
42	0xbe006c3e	-0.12541291
43	0xbe516c37	-0.20451437
44	0x3eb088b7	0.34479305
45	0x3ea24d4f	0.31699607
46	0x3da789af	0.08180558
47	0xbe06b103	-0.13153462
48	0x3e44d0c6	0.19220266
49	0xbe6b0d27	-0.22954236
50	0xbe664a1a	-0.22489205
51	0x3e0403b3	0.12892036
52	0xbe0bd2d6	-0.13654646
53	0x3d7dddc4	0.06197907
54	0xbeb6baa1	-0.35689262
55	0x3eace957	0.33771774
56	0xbe867fea	-0.26269466
57	0x3e089850	0.13339353
58	0xbeac4157	-0.336436
59	0x3da0f5ea	0.078594044
60	0x3eb27e47	0.34861967
61	0xbeb01a05	-0.3439485
62	0xbe49a527	-0.19691907
63	0xbdc62080	-0.09674168
64	0xbcf0a619	-0.029376077
65	0xbdeba516	-0.11506097
66	0x3dbe599f	0.092944376
67	0x3dfac6bc	0.12244937
68	0xbe780b57	-0.24223076
69	0xbe87a0f1	-0.26489976
70	0xbeaad8a7	-0.33368418
71	0xbe9d5543	-0.30729112
72	0xbe5a0436	-0.21290669
73	0x3cf38042	0.029724244
74	0xbceb85cc	-0.028750323
75	0x3a98129e	0.0011602228
76	0xbe80e0d1	-0.2517152
77	0x3e5821ad	0.21106596
78	0xbe2d98da	-0.1695284
79	0xbd87b38a	-0.06626041
80	0xbd97894e	-0.07399236
81	0xbee9c1b1	-0.45655587
82	0xbe8d17ac	-0.27557123
83	0xbe927b6f	-0.28609797
84	0xbd873eaf	-0.06603753
85	0x3e0238d3	0.12716989
86	0xbe224911	-0.15848185
87	0x3e4af937	0.1982163
88	0x3e01cd7b	0.12676041
89	0x3c764ba7	0.015032685
90	0x3d9693b3	0.0735239
91	0xbcf4611e	-0.029831465
92	0xbe226a9a	-0.15860978
93	0x3e2d6bd1	0.1693566
94	0xbe1b3f73	-0.15160923
95	0xbf13ac67	-0.5768494
96	0x3ea97a09	0.33100918
97	0xbe358821	-0.1772771
98	0xbe1ad7ef	-0.15121435
99	0x3e8d8ff9	0.27648905
100	0xbec75da8	-0.38938642
101	0x3f32090e	0.69545066
102	0x3e96c40c	0.29446447
103	0x3e7bf9d4	0.2460702
104	0xbefe0257	-0.4961116
105	0x3ed940b3	0.42432174
106	0xbdee7999	-0.11644287
107	0xbee287c7	-0.44244215
108	0x3f054e58	0.5207267
109	0x3ed3c8f2	0.41364247
110	0x3e6edeea	0.23327222
111	0xbe9294b0	-0.28629065
112	0xbda51a3f	-0.08061647
113	0xbed45a3f	-0.41475102
114	0x3cbf9c30	0.023389906
115	0x3df88f1e	0.121366724
116	0xbf1fe545	-0.6245921
117	0x3e1001b1	0.14063145
118	0xbe0c3128	-0.13690627
119	0x3d27cf2f	0.04096907
120	0xbdfacffd	-0.12246702
121	0xbcff1801	-0.031139376
122	0xbeaeb4db	-0.34122357
123	0x3e8abe8f	0.2709851
124	0x3e26b112	0.16278484
125	0xbdd72900	-0.10505867
126	0xbf0ba019	-0.54541165
127	0x3d02034f	0.031741437
128	0x3e11d91f	0.14242981
129	0x3db9e94f	0.09077703
130	0x3ca2b2b2	0.0198606
131	0xbd8ed266	-0.06973724
132	0x3eeb5c93	0.45969066
133	0xbd9716a5	-0.07377366
134	0xbcd483ef	-0.025941817
135	0x3e7e3150	0.24823499
136	0xbe14436d	-0.14478846
137	0xbe9d5225	-0.30726734
138	0xbdd00ad5	-0.10158316
139	0xbda493f2	-0.08036031
140	0x3dbbebcb	0.09175833
141	0xbe07837b	-0.1323375
142	0xbea0756e	-0.31339592
143	0x3d9845ec	0.074352115
144	0x3dcfb562	0.10142018
145	0xbe0c12a4	-0.13678986
146	0x3e9a1d89	0.3010066
147	0x3e8e0419	0.277375
148	0xbd79d043	-0.06098963
149	0xbdc30c38	-0.09523815
150	0x3dba4f81	0.090971954
151	0x3d87b66a	0.066265896
152	0xbe0e685d	-0.13906999
153	0xbdb1653d	-0.08661888
154	0x3c560ea0	0.01306501
155	0xbe5e233b	-0.21693127
156	0x3e06f741	0.13180257
157	0x3e7cd44d	0.24690361
158	0x3d18503c	0.037185892
159	0xbe2ae152	-0.16687515
160	0xbe46d813	-0.19418363
161	0x3e40c1a7	0.18823873
162	0x3d017450	0.031605065
163	0xbd2ca050	-0.042145073
164	0x3dc3a8fa	0.09553714
165	0xbee9e62b	-0.45683417
166	0x3d1202a5	0.035647053
167	0x3c3649d0	0.011125997
168	0xbda6dc22	-0.08147456
169	0xbd9f18ae	-0.07768379
170	0x3e407d4d	0.18797798
171	0x3e29fc1f	0.16600083
172	0xbe1fcac5	-0.15604694
173	0x3ec39036	0.38195962
174	0x3e4e8ca8	0.20170844
175	0x3f036c1a	0.51336825
176	0x3ec18af1	0.37801316
177	0x3e3b04d5	0.18263562
178	0x3e7f7d82	0.24950221
179	0xbdf1e7e4	-0.11811808
180	0xbd50dd0f	-0.050992068
181	0x3c9fda79	0.019513356
182	0x3ed994f8	0.42496467
183	0xbe6f2d19	-0.23357047
184	0x3d6f927f	0.05848932
185	0x3ebe5b59	0.37179068
186	0x3e7bce42	0.245904
187	0xbe473f48	-0.19457734
188	0xbe6b9362	-0.23005441
189	0xbcc0a8a7	-0.02351792
190	0x3e2e271b	0.17007105
191	0x3d01b7cd	0.031669427
192	0x3d354f5e	0.044265144
193	0x3e31c8a7	0.17361699
194	0xbf0f08cb	-0.5587279
195	0xbda73d68	-0.08166009
196	0x3ecf76cc	0.40520322
197	0x3eb1fed6	0.34764737
198	0xbe5b49c2	-0.21414855
199	0xbeb0ba4b	-0.3451713
200	0x3e99478b	0.29937395
201	0xbe993e3b	-0.2993029
202	0xbe755092	-0.23956516
203	0xbda19467	-0.078896336
204	0x3db72601	0.089427955
205	0xbef1d2b7	-0.47231075
206	0x3ee59a9c	0.4484452
207	0x3f230e40	0.6369362
208	0xbe6cf007	-0.23138438
209	0x3dfde7ac	0.123977035
210	0x3cb400e2	0.021973077
211	0x3e38981c	0.18026775
212	0x3d0c7e4f	0.034300145
213	0xbda4381e	-0.08018516
214	0x3b66215a	0.0035115094
215	0xbd7a413f	-0.06109738
216	0xbe3de6de	-0.185451
217	0x3e0148c8	0.1262542
218	0x3ce50b12	0.02795938
219	0x3d2216e7	0.039572623
220	0xbdce5d07	-0.10076337
221	0xbe09e938	-0.13467872
222	0x3ed0b8be	0.40765947
223	0x3ea7c69d	0.32768717
224	0xbeb9cdd0	-0.36289835
225	0xbe96c4c3	-0.29446992
226	0x3f05f2ce	0.52323616
227	0xbf0b5057	-0.54419464
228	0x3e34a178	0.1763972
229	0xbe4566cd	-0.19277497
230	0xbecec9fb	-0.40388474
231	0x3f2361f3	0.63821334
232	0x3c2e1e84	0.010627393
233	0xbc323359	-0.0108765
234	0xbf0eb89f	-0.5575046
235	0x3eadc749	0.33941105
236	0xbdccb2b6	-0.09995024
237	0xbe4d662e	-0.2005851
238	0xbe6fdd2d	-0.23424216
239	0xbe89995b	-0.26874813
240	0x3b0699e9	0.0020538515
241	0x3e4d2a40	0.20035648
242	0xbe88b442	-0.26700026
243	0xbe0c382a	-0.136933
244	0x3f34379a	0.7039734
245	0x3e8a4a6d	0.27009907
246	0xbe5a7c98	-0.21336591
247	0x3d57f283	0.05272151
248	0xbe7e3021	-0.24823047
249	0x3de87e98	0.11352271
250	0x3dd0983f	0.10185289
251	0xbe2195da	-0.1577982
252	0x3cb92a1b	0.022603085
253	0xbe2075a1	-0.15669872
254	0x3e4fabfc	0.2028045
255	0x3e78173c	0.24227613

net.2.bias f4 [64]
0	0x3df62073	0.12017908
1	0x3d991c63	0.074761175
2	0xbd0c73cf	-0.03429013
3	0x3e016b39	0.12638558
4	0x3dd62f6f	0.10458266
5	0xbd8f53cd	-0.069984056
6	0x3e1a9511	0.15095927
7	0xbc34a90e	-0.011026634
8	0x3c2a016b	0.010376315
9	0xbc9b5ae0	-0.018964231
10	0x3db58c6f	0.08864676
11	0x3ceab786	0.028651964
12	0xbdfcc9fc	-0.12343213
13	0xbd3951ca	-0.045244016
14	0xbe18567b	-0.1487674
15	0x3d3f77a3	0.046744954
16	0x3c57d515	0.013173361
17	0x3e2634ec	0.16231126
18	0xbe15c2f2	-0.14625147
19	0x3ce1e7d5	0.027576366
20	0xb91cdb6e	-0.00014959063
21	0x3d58d4b2	0.052937217
22	0xbe1b1642	-0.1514521
23	0xbdca2770	-0.09870803
24	0x3ce0a9b4	0.02742467
25	0xbcbc255a	-0.02296703
26	0xbad12bce	-0.0015958489
27	0xbdf263e0	-0.11835456
28	0x3c81201a	0.015762378
29	0x3e09cd73	0.13457279
30	0x3d9d1fe1	0.07672096
31	0x3bd4d57c	0.006495176
32	0x3cb07537	0.021540267
33	0x3ca2e739	0.019885646
34	0xbd196bd9	-0.037456367
35	0x3d548aea	0.05189029
36	0xbc459b13	-0.012060898
37	0x3d8e7c5d	0.06957314
38	0x3da388d1	0.0798508
39	0xbdb52481	-0.08844853
40	0xbb82e221	-0.003994242
41	0x3d17f606	0.03709986
42	0x3d8db4d4	0.06919256
43	0x3d1cd8f4	0.03829284
44	0x3cc4e834	0.024036504
45	0x3d81741e	0.06320976
46	0xbdd62faa	-0.1045831
47	0xbe159233	-0.14606552
48	0xbc2ebcc7	-0.010665125
49	0x3cbf62fc	0.02336263
50	0x3e26f715	0.16305192
51	0x3cfdc434	0.030977346
52	0x3d4c3c27	0.049862053
53	0x3d837f28	0.064207375
54	0xbdf2f544	-0.11863187
55	0x3eb22e68	0.3480103
56	0x3d17bb8a	0.037044086
57	0xbcd4bcd1	-0.02596894
58	0x3a8d3d47	0.0010775708
59	0x3dcba5f6	0.09943764
60	0xbda758b9	-0.081712194
61	0xbcde05fa	-0.02710246
62	0xbde0e6c2	-0.109815136
63	0x3dc5d844	0.0966039

net.4.weight f4 [17, 64]
0	0xbca7a6ae	-0.020465221
1	0xbca2dd88	-0.019881025
2	0xbd4f778d	-0.050651122
3	0x3bab53d1	0.0052284976
4	0xbd521a25	-0.051294465
5	0xbcbead0a	-0.02327587
6	0xbd113819	-0.03545389
7	0xbd283320	-0.04106438
8	0xbce88cf1	-0.028387519
9	0xbb5e1364	-0.003388607
10	0xbd294292	-0.041323252
11	0xbdd6f6fc	-0.10496327
12	0x3df29694	0.11845127
13	0x3c17027a	0.009216899
14	0x3c13b920	0.009016305
15	0xbbad0504	-0.005280139
16	0xbd6385bb	-0.055547457
17	0xbc8d2108	-0.017227665
18	0xbce00d5b	-0.027350118
19	0xbd919f52	-0.07110466
20	0xbc9bb1bc	-0.019005649
21	0xbd436360	-0.047702193
22	0xbce274c6	-0.027643573
23	0x3d844879	0.064591356
24	0x3ca66aa0	0.020314515
25	0x3b5dbadb	0.0033833298
26	0x3d821119	0.06350917
27	0xbc29c7e9	-0.010362604
28	0xbcd6cd0e	-0.026220825
29	0x3cdbf2b3	0.026849126
30	0xbdd8dde9	-0.10589201
31	0xbbe6abbd	-0.007039516
32	0xbc283b5d	-0.01026806
33	0xbc3a7db8	-0.011382513
34	0x3c06d293	0.008228916
35	0xbdb97428	-0.09055358
36	0xbcdcdaf0	-0.026959866
37	0xbc2a4799	-0.010393047
38	0xbb93fa1d	-0.0045159
39	0x3b7ea4e1	0.00388556
40	0x3c3d1b7c	0.011542197
41	0xbd34ba0c	-0.04412274
42	0x3c6c23c5	0.014412825
43	0xbd26ba76	-0.040705167
44	0xbda1b5bb	-0.078959905
45	0x3d5ee936	0.054421626
46	0x3ddc9c70	0.107720256
47	0xbb8fd594	-0.004389474
48	0xbaa54994	-0.0012610429
49	0xbcb67c67	-0.022276117
50	0x3ae29728	0.001728748
51	0x3c344ed1	0.011005119
52	0xbd5c424c	-0.053774163
53	0x3a1bd3e9	0.0005944358
54	0x3d198885	0.03748371
55	0xbd801729	-0.062544174
56	0x3df4f5e2	0.11960961
57	0xbd10ceb6	-0.035353385
58	0x3c95ee5d	0.018302137
59	0x3c29e84b	0.010370324
60	0x3b87febe	0.0041502407
61	0x3cb6dcaf	0.022322027
62	0xbd359f55	-0.044341404
63	0xbc88fe72	-0.016722891
64	0xbe064e46	-0.13115796
65	0xbd3b452f	-0.045720275
66	0x3e103d6f	0.14085935
67	0xbc729175	-0.0148051875
68	0xbe25844b	-0.16163747
69	0x3c1af477	0.009457699
70	0xbcf03fd7	-0.029327316
71	0x3c50f718	0.012754224
72	0xbbe01c37	-0.006839301
73	0x3e041627	0.12899075
74	0xbd13df12	-0.03610141
75	0x3dd7e242	0.10541202
76	0xbdc36f2a	-0.09542687
77	0x3e429b51	0.19004561
78	0xbd140f60	-0.036147475
79	0x3ccc9c31	0.024976822
80	0x3c31bd2e	0.010848327
81	0x3db2e2c3	0.087346576
82	0x3ca27168	0.019829467
83	0x3d9ccdb5	0.07656423
84	0xbd7e8d15	-0.062146265
85	0xbd9055ff	-0.070476525
86	0x3dfa1d5c	0.12212631
87	0x3e0ea1a3	0.13928847
88	0x3e2ef36f	0.1708505
89	0x3e3ca542	0.18422416
90	0x3d84e904	0.06489757
91	0xbd75657d	-0.05991124
92	0x3d949703	0.07255366
93	0x3d6c3b5e	0.057673804
94	0xbdfa6577	-0.12226384
95	0xbdad16f6	-0.08451645
96	0x3daa48d3	0.08314671
97	0xbd8cf3cc	-0.06882438
98	0xbdd31a92	-0.10307802
99	0x3da4519d	0.08023379
100	0x3d2818e5	0.041039366
101	0xbda5072c	-0.080580086
102	0xbd777a80	-0.06041956
103	0xbe172340	-0.1475954
104	0xbc225ddb	-0.009910072
105	0x3d79484f	0.060859974
106	0x3dbaf44a	0.09128626
107	0xbd727bc2	-0.059200056
108	0x3e02b250	0.12763333
109	0x3e0b2e1d	0.1359181
110	0xbcb12153	-0.021622336
111	0x3d6f1dc2	0.05837799
112	0x3d967ca6	0.073479936
113	0x3cf8f218	0.030388877
114	0x3c2c1807	0.010503775
115	0x3d58a4ae	0.052891426
116	0x3c22ece8	0.009944178
117	0xbcb988e1	-0.022648277
118	0xbdd1e4a2	-0.102486864
119	0x3c90f06b	0.017692765
120	0x3e017025	0.12640436
121	0xbdf85cdb	-0.12127086
122	0xbc7d8470	-0.01547347
123	0xbdeb9ef8	-0.1150493
124	0xbdc6d873	-0.09709253
125	0x3e5f1168	0.21783984
126	0x3d929ae6	0.07158451
127	0x3b071947	0.0020614432
128	0xbdb71f46	-0.08941512
129	0x3c94f88e	0.018184926
130	0x3c48200e	0.012214674
131	0xbd3f6aea	-0.04673282
132	0xbd101b21	-0.035182122
133	0xbd4b3ca8	-0.049618393
134	0x3ce3a749	0.027789729
135	0xbd041947	-0.03225067
136	0xbe0e3dd0	-0.13890767
137	0x3e19dce2	0.15025666
138	0xbb14ffaf	-0.0022735407
139	0x3e5623bd	0.2091207
140	0xbccb3c01	-0.024808886
141	0x3d742e26	0.059614323
142	0xbcefa947	-0.029255522
143	0xbcb8cd13	-0.022558725
144	0x3dbdece2	0.092736974
145	0xbd83f1e1	-0.06442619
146	0x3befa109	0.007312898
147	0x3e096d9e	0.13420722
148	0xbd1d5a4d	-0.038416196
149	0xbdd00015	-0.10156266
150	0x3d7fee84	0.062483326
151	0x3e1d00d9	0.15332355
152	0x3e371fa5	0.17883165
153	0x3d3b7eec	0.04577534
154	0x3c7614d1	0.015019611
155	0xbdb818eb	-0.08989128
156	0x3de1ba1b	0.11021825
157	0x3d953b9d	0.07286761
158	0xbc42cc32	-0.011889504
159	0xbc041ccd	-0.008063507
160	0x3ccdc3b7	0.025117738
161	0xbd8d2504	-0.06891826
162	0xbd347a90	-0.044062197
163	0xbd782993	-0.060586523
164	0x3ceaa240	0.02864182
165	0x3c7b871e	0.015352039
166	0x3c6b2251	0.014351443
167	0xbda76105	-0.08172802
168	0xbc046dfe	-0.008082865
169	0xbd1d3598	-0.03838119
170	0x3e14da4a	0.14536396
171	0xbc979860	-0.018505275
172	0x3debc539	0.115122266
173	0xbd723a37	-0.05913755
174	0x3e197a33	0.14988022
175	0x3e07351b	0.13203852
176	0x3d986ba4	0.07442406
177	0x3ddc6b52	0.10762657
178	0xbd22bb90	-0.039729655
179	0x3dde90b7	0.10867446
180	0xbd2d229d	-0.042269338
181	0xbb22e57a	-0.0024856017
182	0xbe38b963	-0.1803947
183	0xbbf11f44	-0.0073584635
184	0x3e8d1e60	0.27562237
185	0x3da39281	0.07986928
186	0x3cc39ff4	0.023879983
187	0xbe560e9d	-0.20904012
188	0xbb56e59f	-0.0032790673
189	0x3c48181c	0.012212779
190	0x3d917dc6	0.071040675
191	0xbdf67e3f	-0.12035798
192	0x3c513c58	0.012770735
193	0x3d799b36	0.060939036
194	0xbcd4ae76	-0.025962096
195	0xbd663b3d	-0.056208838
196	0xbd9c500b	-0.076324545
197	0xbcd14d5c	-0.025549583
198	0xbe08e45a	-0.13368359
199	0x3e24456b	0.16042106
200	0xbb81cad0	-0.0039609447
201	0x3d908d49	0.07058198
202	0xbe24cf2e	-0.16094658
203	0xbe335c19	-0.17515601
204	0xbdd74217	-0.105106525
205	0x3c18269e	0.009286551
206	0x3cdf8406	0.027284633
207	0x3cfe1648	0.031016484
208	0xbd6ce17b	-0.057832222
209	0x3dc229d2	0.09480633
210	0x3e0c238c	0.13685435
211	0x3d9ecd65	0.0775402
212	0x3deddb22	0.11614062
213	0x3e16a1f1	0.14710213
214	0xbcb40846	-0.021976601
215	0x3bc4606f	0.005992941
216	0x3da9da52	0.082935944
217	0x3c075123	0.008259091
218	0x3d1df9e6	0.0385684
219	0x3d9b9e75	0.07598583
220	0xbd19685f	-0.03745305
221	0x3dcc8ec7	0.0998817
222	0xbdfb9bf3	-0.12285604
223	0xbd9b2a7b	-0.07576462
224	0xbd78c970	-0.06073898
225	0x3ca760fb	0.020431986
226	0x3de20732	0.11036529
227	0x3d4847c1	0.048896555
228	0xbe1d9d13	-0.1539195
229	0xbde484eb	-0.111581646
230	0xbd9e68e4	-0.0773485
231	0xbdaf193b	-0.08549734
232	0x3dbba4bb	0.09162279
233	0xbe243fad	-0.16039915
234	0xbcc1df55	-0.023666063
235	0x3bcd498c	0.006264871
236	0x3d613f45	0.05499198
237	0x3e6dbf80	0.23217583
238	0xbd672070	-0.05642742
239	0x3e11fe72	0.1425722
240	0x3dd1a375	0.10236255
241	0xbcbc33ae	-0.022973862
242	0xbd1e19a1	-0.03859866
243	0x3d989c76	0.074517176
244	0x3d552b84	0.052043453
245	0xbaffe68a	-0.0019523662
246	0xbd373f8b	-0.044738334
247	0xbc7ff9bb	-0.015623505
248	0xbd2f1cf5	-0.042752225
249	0xbdf2c52d	-0.118540145
250	0x3c5fb3e9	0.013653734
251	0x3d61e879	0.055153344
252	0x3d7fe843	0.06247736
253	0x3cb19fa0	0.02168256
254	0x3bcb11e0	0.006197199
255	0x3c0a366b	0.008435826

net.4.bias f4 [17]
0	0xbbe0c347	-0.0068592164
1	0x3d435617	0.047689524
2	0x3d2f931d	0.042864908
3	0xbd52dd6d	-0.0514807
4	0xbdc77aaa	-0.09740193
5	0x3d7eeef9	0.06223962
6	0xbd159e5d	-0.03652798
7	0xbda47247	-0.08029609
8	0x3d8f5d35	0.070002
9	0x3de1791f	0.1100943
10	0x3dc5b9c0	0.096545696
11	0xbc5b8326	-0.013397967
12	0x3e98b812	0.29827935
13	0x3f2d070a	0.67588866
14	0x3d44b1b5	0.048021037
15	0xbd1835b0	-0.037160575
16	0x3efd7d07	0.4950945
